Starting... 
2025-11-19 10:35:37.811581: Training config: max_epochs=1, gated_fusion=spatial 
2025-11-19 10:35:38.404031: Model params: total=7,605,616, trainable=7,605,616 
2025-11-19 10:35:39.921045: [WARN] Parameter count decreased -14.64% vs baseline (8.91M). 
2025-11-19 10:35:52.657050: Unable to plot network architecture: 
2025-11-19 10:35:52.662456: No module named 'hiddenlayer' 
2025-11-19 10:35:52.667600: 
printing the network instead:
 
2025-11-19 10:35:52.671405: MNet(
  (down11): Down(
    (CB2d): CB3d(
      (conv1): CNA3d(
        (conv): Conv3d(1, 32, kernel_size=(1, 3, 3), stride=(1, 1, 1), padding=(0, 1, 1), bias=False)
        (norm): InstanceNorm3d(32, eps=1e-05, momentum=0.1, affine=True, track_running_stats=False)
        (activation): LeakyReLU(negative_slope=0.01, inplace=True)
      )
      (conv2): CNA3d(
        (conv): Conv3d(32, 32, kernel_size=(1, 3, 3), stride=(1, 1, 1), padding=(0, 1, 1), bias=False)
        (norm): InstanceNorm3d(32, eps=1e-05, momentum=0.1, affine=True, track_running_stats=False)
        (activation): LeakyReLU(negative_slope=0.01, inplace=True)
      )
    )
    (CB3d): CB3d(
      (conv1): CNA3d(
        (conv): Conv3d(1, 32, kernel_size=(3, 3, 3), stride=(1, 1, 1), padding=(1, 1, 1), bias=False)
        (norm): InstanceNorm3d(32, eps=1e-05, momentum=0.1, affine=True, track_running_stats=False)
        (activation): LeakyReLU(negative_slope=0.01, inplace=True)
      )
      (conv2): CNA3d(
        (conv): Conv3d(32, 32, kernel_size=(3, 3, 3), stride=(1, 1, 1), padding=(1, 1, 1), bias=False)
        (norm): InstanceNorm3d(32, eps=1e-05, momentum=0.1, affine=True, track_running_stats=False)
        (activation): LeakyReLU(negative_slope=0.01, inplace=True)
      )
    )
  )
  (down12): Down(
    (CB2d): CB3d(
      (conv1): CNA3d(
        (conv): Conv3d(32, 48, kernel_size=(1, 3, 3), stride=(1, 1, 1), padding=(0, 1, 1), bias=False)
        (norm): InstanceNorm3d(48, eps=1e-05, momentum=0.1, affine=True, track_running_stats=False)
        (activation): LeakyReLU(negative_slope=0.01, inplace=True)
      )
      (conv2): CNA3d(
        (conv): Conv3d(48, 48, kernel_size=(1, 3, 3), stride=(1, 1, 1), padding=(0, 1, 1), bias=False)
        (norm): InstanceNorm3d(48, eps=1e-05, momentum=0.1, affine=True, track_running_stats=False)
        (activation): LeakyReLU(negative_slope=0.01, inplace=True)
      )
    )
    (CB3d): CB3d(
      (conv1): CNA3d(
        (conv): Conv3d(32, 48, kernel_size=(3, 3, 3), stride=(1, 1, 1), padding=(1, 1, 1), bias=False)
        (norm): InstanceNorm3d(48, eps=1e-05, momentum=0.1, affine=True, track_running_stats=False)
        (activation): LeakyReLU(negative_slope=0.01, inplace=True)
      )
      (conv2): CNA3d(
        (conv): Conv3d(48, 48, kernel_size=(3, 3, 3), stride=(1, 1, 1), padding=(1, 1, 1), bias=False)
        (norm): InstanceNorm3d(48, eps=1e-05, momentum=0.1, affine=True, track_running_stats=False)
        (activation): LeakyReLU(negative_slope=0.01, inplace=True)
      )
    )
  )
  (down13): Down(
    (CB2d): CB3d(
      (conv1): CNA3d(
        (conv): Conv3d(48, 64, kernel_size=(1, 3, 3), stride=(1, 1, 1), padding=(0, 1, 1), bias=False)
        (norm): InstanceNorm3d(64, eps=1e-05, momentum=0.1, affine=True, track_running_stats=False)
        (activation): LeakyReLU(negative_slope=0.01, inplace=True)
      )
      (conv2): CNA3d(
        (conv): Conv3d(64, 64, kernel_size=(1, 3, 3), stride=(1, 1, 1), padding=(0, 1, 1), bias=False)
        (norm): InstanceNorm3d(64, eps=1e-05, momentum=0.1, affine=True, track_running_stats=False)
        (activation): LeakyReLU(negative_slope=0.01, inplace=True)
      )
    )
    (CB3d): CB3d(
      (conv1): CNA3d(
        (conv): Conv3d(48, 64, kernel_size=(3, 3, 3), stride=(1, 1, 1), padding=(1, 1, 1), bias=False)
        (norm): InstanceNorm3d(64, eps=1e-05, momentum=0.1, affine=True, track_running_stats=False)
        (activation): LeakyReLU(negative_slope=0.01, inplace=True)
      )
      (conv2): CNA3d(
        (conv): Conv3d(64, 64, kernel_size=(3, 3, 3), stride=(1, 1, 1), padding=(1, 1, 1), bias=False)
        (norm): InstanceNorm3d(64, eps=1e-05, momentum=0.1, affine=True, track_running_stats=False)
        (activation): LeakyReLU(negative_slope=0.01, inplace=True)
      )
    )
  )
  (down14): Down(
    (CB2d): CB3d(
      (conv1): CNA3d(
        (conv): Conv3d(64, 80, kernel_size=(1, 3, 3), stride=(1, 1, 1), padding=(0, 1, 1), bias=False)
        (norm): InstanceNorm3d(80, eps=1e-05, momentum=0.1, affine=True, track_running_stats=False)
        (activation): LeakyReLU(negative_slope=0.01, inplace=True)
      )
      (conv2): CNA3d(
        (conv): Conv3d(80, 80, kernel_size=(1, 3, 3), stride=(1, 1, 1), padding=(0, 1, 1), bias=False)
        (norm): InstanceNorm3d(80, eps=1e-05, momentum=0.1, affine=True, track_running_stats=False)
        (activation): LeakyReLU(negative_slope=0.01, inplace=True)
      )
    )
    (CB3d): CB3d(
      (conv1): CNA3d(
        (conv): Conv3d(64, 80, kernel_size=(3, 3, 3), stride=(1, 1, 1), padding=(1, 1, 1), bias=False)
        (norm): InstanceNorm3d(80, eps=1e-05, momentum=0.1, affine=True, track_running_stats=False)
        (activation): LeakyReLU(negative_slope=0.01, inplace=True)
      )
      (conv2): CNA3d(
        (conv): Conv3d(80, 80, kernel_size=(3, 3, 3), stride=(1, 1, 1), padding=(1, 1, 1), bias=False)
        (norm): InstanceNorm3d(80, eps=1e-05, momentum=0.1, affine=True, track_running_stats=False)
        (activation): LeakyReLU(negative_slope=0.01, inplace=True)
      )
    )
  )
  (bottleneck1): Down(
    (CB2d): CB3d(
      (conv1): CNA3d(
        (conv): Conv3d(80, 96, kernel_size=(1, 3, 3), stride=(1, 1, 1), padding=(0, 1, 1), bias=False)
        (norm): InstanceNorm3d(96, eps=1e-05, momentum=0.1, affine=True, track_running_stats=False)
        (activation): LeakyReLU(negative_slope=0.01, inplace=True)
      )
      (conv2): CNA3d(
        (conv): Conv3d(96, 96, kernel_size=(1, 3, 3), stride=(1, 1, 1), padding=(0, 1, 1), bias=False)
        (norm): InstanceNorm3d(96, eps=1e-05, momentum=0.1, affine=True, track_running_stats=False)
        (activation): LeakyReLU(negative_slope=0.01, inplace=True)
      )
    )
  )
  (up11): Up(
    (CB2d): CB3d(
      (conv1): CNA3d(
        (conv): Conv3d(176, 80, kernel_size=(1, 3, 3), stride=(1, 1, 1), padding=(0, 1, 1), bias=False)
        (norm): InstanceNorm3d(80, eps=1e-05, momentum=0.1, affine=True, track_running_stats=False)
        (activation): LeakyReLU(negative_slope=0.01, inplace=True)
      )
      (conv2): CNA3d(
        (conv): Conv3d(80, 80, kernel_size=(1, 3, 3), stride=(1, 1, 1), padding=(0, 1, 1), bias=False)
        (norm): InstanceNorm3d(80, eps=1e-05, momentum=0.1, affine=True, track_running_stats=False)
        (activation): LeakyReLU(negative_slope=0.01, inplace=True)
      )
    )
    (fuse): GatedFMU(
      (cg): ChannelGate(
        (fc1): Conv3d(160, 20, kernel_size=(1, 1, 1), stride=(1, 1, 1))
        (act): ReLU(inplace=True)
        (fc2): Conv3d(20, 80, kernel_size=(1, 1, 1), stride=(1, 1, 1))
      )
    )
    (fuse_skip): GatedFMU(
      (cg): ChannelGate(
        (fc1): Conv3d(160, 20, kernel_size=(1, 1, 1), stride=(1, 1, 1))
        (act): ReLU(inplace=True)
        (fc2): Conv3d(20, 80, kernel_size=(1, 1, 1), stride=(1, 1, 1))
      )
    )
    (fuse_up): GatedFMU(
      (cg): ChannelGate(
        (fc1): Conv3d(192, 24, kernel_size=(1, 1, 1), stride=(1, 1, 1))
        (act): ReLU(inplace=True)
        (fc2): Conv3d(24, 96, kernel_size=(1, 1, 1), stride=(1, 1, 1))
      )
    )
  )
  (up12): Up(
    (CB2d): CB3d(
      (conv1): CNA3d(
        (conv): Conv3d(144, 64, kernel_size=(1, 3, 3), stride=(1, 1, 1), padding=(0, 1, 1), bias=False)
        (norm): InstanceNorm3d(64, eps=1e-05, momentum=0.1, affine=True, track_running_stats=False)
        (activation): LeakyReLU(negative_slope=0.01, inplace=True)
      )
      (conv2): CNA3d(
        (conv): Conv3d(64, 64, kernel_size=(1, 3, 3), stride=(1, 1, 1), padding=(0, 1, 1), bias=False)
        (norm): InstanceNorm3d(64, eps=1e-05, momentum=0.1, affine=True, track_running_stats=False)
        (activation): LeakyReLU(negative_slope=0.01, inplace=True)
      )
    )
    (fuse): GatedFMU(
      (cg): ChannelGate(
        (fc1): Conv3d(128, 16, kernel_size=(1, 1, 1), stride=(1, 1, 1))
        (act): ReLU(inplace=True)
        (fc2): Conv3d(16, 64, kernel_size=(1, 1, 1), stride=(1, 1, 1))
      )
    )
    (fuse_skip): GatedFMU(
      (cg): ChannelGate(
        (fc1): Conv3d(128, 16, kernel_size=(1, 1, 1), stride=(1, 1, 1))
        (act): ReLU(inplace=True)
        (fc2): Conv3d(16, 64, kernel_size=(1, 1, 1), stride=(1, 1, 1))
      )
    )
    (fuse_up): GatedFMU(
      (cg): ChannelGate(
        (fc1): Conv3d(160, 20, kernel_size=(1, 1, 1), stride=(1, 1, 1))
        (act): ReLU(inplace=True)
        (fc2): Conv3d(20, 80, kernel_size=(1, 1, 1), stride=(1, 1, 1))
      )
    )
  )
  (up13): Up(
    (CB2d): CB3d(
      (conv1): CNA3d(
        (conv): Conv3d(112, 48, kernel_size=(1, 3, 3), stride=(1, 1, 1), padding=(0, 1, 1), bias=False)
        (norm): InstanceNorm3d(48, eps=1e-05, momentum=0.1, affine=True, track_running_stats=False)
        (activation): LeakyReLU(negative_slope=0.01, inplace=True)
      )
      (conv2): CNA3d(
        (conv): Conv3d(48, 48, kernel_size=(1, 3, 3), stride=(1, 1, 1), padding=(0, 1, 1), bias=False)
        (norm): InstanceNorm3d(48, eps=1e-05, momentum=0.1, affine=True, track_running_stats=False)
        (activation): LeakyReLU(negative_slope=0.01, inplace=True)
      )
    )
    (fuse): GatedFMU(
      (cg): ChannelGate(
        (fc1): Conv3d(96, 12, kernel_size=(1, 1, 1), stride=(1, 1, 1))
        (act): ReLU(inplace=True)
        (fc2): Conv3d(12, 48, kernel_size=(1, 1, 1), stride=(1, 1, 1))
      )
    )
    (fuse_skip): GatedFMU(
      (cg): ChannelGate(
        (fc1): Conv3d(96, 12, kernel_size=(1, 1, 1), stride=(1, 1, 1))
        (act): ReLU(inplace=True)
        (fc2): Conv3d(12, 48, kernel_size=(1, 1, 1), stride=(1, 1, 1))
      )
    )
    (fuse_up): GatedFMU(
      (cg): ChannelGate(
        (fc1): Conv3d(128, 16, kernel_size=(1, 1, 1), stride=(1, 1, 1))
        (act): ReLU(inplace=True)
        (fc2): Conv3d(16, 64, kernel_size=(1, 1, 1), stride=(1, 1, 1))
      )
    )
  )
  (up14): Up(
    (CB2d): CB3d(
      (conv1): CNA3d(
        (conv): Conv3d(80, 32, kernel_size=(1, 3, 3), stride=(1, 1, 1), padding=(0, 1, 1), bias=False)
        (norm): InstanceNorm3d(32, eps=1e-05, momentum=0.1, affine=True, track_running_stats=False)
        (activation): LeakyReLU(negative_slope=0.01, inplace=True)
      )
      (conv2): CNA3d(
        (conv): Conv3d(32, 32, kernel_size=(1, 3, 3), stride=(1, 1, 1), padding=(0, 1, 1), bias=False)
        (norm): InstanceNorm3d(32, eps=1e-05, momentum=0.1, affine=True, track_running_stats=False)
        (activation): LeakyReLU(negative_slope=0.01, inplace=True)
      )
    )
    (CB3d): CB3d(
      (conv1): CNA3d(
        (conv): Conv3d(80, 32, kernel_size=(3, 3, 3), stride=(1, 1, 1), padding=(1, 1, 1), bias=False)
        (norm): InstanceNorm3d(32, eps=1e-05, momentum=0.1, affine=True, track_running_stats=False)
        (activation): LeakyReLU(negative_slope=0.01, inplace=True)
      )
      (conv2): CNA3d(
        (conv): Conv3d(32, 32, kernel_size=(3, 3, 3), stride=(1, 1, 1), padding=(1, 1, 1), bias=False)
        (norm): InstanceNorm3d(32, eps=1e-05, momentum=0.1, affine=True, track_running_stats=False)
        (activation): LeakyReLU(negative_slope=0.01, inplace=True)
      )
    )
    (fuse): GatedFMU(
      (cg): ChannelGate(
        (fc1): Conv3d(64, 8, kernel_size=(1, 1, 1), stride=(1, 1, 1))
        (act): ReLU(inplace=True)
        (fc2): Conv3d(8, 32, kernel_size=(1, 1, 1), stride=(1, 1, 1))
      )
    )
    (fuse_skip): GatedFMU(
      (cg): ChannelGate(
        (fc1): Conv3d(64, 8, kernel_size=(1, 1, 1), stride=(1, 1, 1))
        (act): ReLU(inplace=True)
        (fc2): Conv3d(8, 32, kernel_size=(1, 1, 1), stride=(1, 1, 1))
      )
    )
    (fuse_up): GatedFMU(
      (cg): ChannelGate(
        (fc1): Conv3d(96, 12, kernel_size=(1, 1, 1), stride=(1, 1, 1))
        (act): ReLU(inplace=True)
        (fc2): Conv3d(12, 48, kernel_size=(1, 1, 1), stride=(1, 1, 1))
      )
    )
  )
  (down21): Down(
    (CB2d): CB3d(
      (conv1): CNA3d(
        (conv): Conv3d(32, 48, kernel_size=(1, 3, 3), stride=(1, 1, 1), padding=(0, 1, 1), bias=False)
        (norm): InstanceNorm3d(48, eps=1e-05, momentum=0.1, affine=True, track_running_stats=False)
        (activation): LeakyReLU(negative_slope=0.01, inplace=True)
      )
      (conv2): CNA3d(
        (conv): Conv3d(48, 48, kernel_size=(1, 3, 3), stride=(1, 1, 1), padding=(0, 1, 1), bias=False)
        (norm): InstanceNorm3d(48, eps=1e-05, momentum=0.1, affine=True, track_running_stats=False)
        (activation): LeakyReLU(negative_slope=0.01, inplace=True)
      )
    )
    (CB3d): CB3d(
      (conv1): CNA3d(
        (conv): Conv3d(32, 48, kernel_size=(3, 3, 3), stride=(1, 1, 1), padding=(1, 1, 1), bias=False)
        (norm): InstanceNorm3d(48, eps=1e-05, momentum=0.1, affine=True, track_running_stats=False)
        (activation): LeakyReLU(negative_slope=0.01, inplace=True)
      )
      (conv2): CNA3d(
        (conv): Conv3d(48, 48, kernel_size=(3, 3, 3), stride=(1, 1, 1), padding=(1, 1, 1), bias=False)
        (norm): InstanceNorm3d(48, eps=1e-05, momentum=0.1, affine=True, track_running_stats=False)
        (activation): LeakyReLU(negative_slope=0.01, inplace=True)
      )
    )
  )
  (down22): Down(
    (CB2d): CB3d(
      (conv1): CNA3d(
        (conv): Conv3d(48, 64, kernel_size=(1, 3, 3), stride=(1, 1, 1), padding=(0, 1, 1), bias=False)
        (norm): InstanceNorm3d(64, eps=1e-05, momentum=0.1, affine=True, track_running_stats=False)
        (activation): LeakyReLU(negative_slope=0.01, inplace=True)
      )
      (conv2): CNA3d(
        (conv): Conv3d(64, 64, kernel_size=(1, 3, 3), stride=(1, 1, 1), padding=(0, 1, 1), bias=False)
        (norm): InstanceNorm3d(64, eps=1e-05, momentum=0.1, affine=True, track_running_stats=False)
        (activation): LeakyReLU(negative_slope=0.01, inplace=True)
      )
    )
    (CB3d): CB3d(
      (conv1): CNA3d(
        (conv): Conv3d(48, 64, kernel_size=(3, 3, 3), stride=(1, 1, 1), padding=(1, 1, 1), bias=False)
        (norm): InstanceNorm3d(64, eps=1e-05, momentum=0.1, affine=True, track_running_stats=False)
        (activation): LeakyReLU(negative_slope=0.01, inplace=True)
      )
      (conv2): CNA3d(
        (conv): Conv3d(64, 64, kernel_size=(3, 3, 3), stride=(1, 1, 1), padding=(1, 1, 1), bias=False)
        (norm): InstanceNorm3d(64, eps=1e-05, momentum=0.1, affine=True, track_running_stats=False)
        (activation): LeakyReLU(negative_slope=0.01, inplace=True)
      )
    )
    (fuse): GatedFMU(
      (cg): ChannelGate(
        (fc1): Conv3d(96, 12, kernel_size=(1, 1, 1), stride=(1, 1, 1))
        (act): ReLU(inplace=True)
        (fc2): Conv3d(12, 48, kernel_size=(1, 1, 1), stride=(1, 1, 1))
      )
    )
  )
  (down23): Down(
    (CB2d): CB3d(
      (conv1): CNA3d(
        (conv): Conv3d(64, 80, kernel_size=(1, 3, 3), stride=(1, 1, 1), padding=(0, 1, 1), bias=False)
        (norm): InstanceNorm3d(80, eps=1e-05, momentum=0.1, affine=True, track_running_stats=False)
        (activation): LeakyReLU(negative_slope=0.01, inplace=True)
      )
      (conv2): CNA3d(
        (conv): Conv3d(80, 80, kernel_size=(1, 3, 3), stride=(1, 1, 1), padding=(0, 1, 1), bias=False)
        (norm): InstanceNorm3d(80, eps=1e-05, momentum=0.1, affine=True, track_running_stats=False)
        (activation): LeakyReLU(negative_slope=0.01, inplace=True)
      )
    )
    (CB3d): CB3d(
      (conv1): CNA3d(
        (conv): Conv3d(64, 80, kernel_size=(3, 3, 3), stride=(1, 1, 1), padding=(1, 1, 1), bias=False)
        (norm): InstanceNorm3d(80, eps=1e-05, momentum=0.1, affine=True, track_running_stats=False)
        (activation): LeakyReLU(negative_slope=0.01, inplace=True)
      )
      (conv2): CNA3d(
        (conv): Conv3d(80, 80, kernel_size=(3, 3, 3), stride=(1, 1, 1), padding=(1, 1, 1), bias=False)
        (norm): InstanceNorm3d(80, eps=1e-05, momentum=0.1, affine=True, track_running_stats=False)
        (activation): LeakyReLU(negative_slope=0.01, inplace=True)
      )
    )
    (fuse): GatedFMU(
      (cg): ChannelGate(
        (fc1): Conv3d(128, 16, kernel_size=(1, 1, 1), stride=(1, 1, 1))
        (act): ReLU(inplace=True)
        (fc2): Conv3d(16, 64, kernel_size=(1, 1, 1), stride=(1, 1, 1))
      )
    )
  )
  (bottleneck2): Down(
    (CB2d): CB3d(
      (conv1): CNA3d(
        (conv): Conv3d(80, 96, kernel_size=(1, 3, 3), stride=(1, 1, 1), padding=(0, 1, 1), bias=False)
        (norm): InstanceNorm3d(96, eps=1e-05, momentum=0.1, affine=True, track_running_stats=False)
        (activation): LeakyReLU(negative_slope=0.01, inplace=True)
      )
      (conv2): CNA3d(
        (conv): Conv3d(96, 96, kernel_size=(1, 3, 3), stride=(1, 1, 1), padding=(0, 1, 1), bias=False)
        (norm): InstanceNorm3d(96, eps=1e-05, momentum=0.1, affine=True, track_running_stats=False)
        (activation): LeakyReLU(negative_slope=0.01, inplace=True)
      )
    )
    (CB3d): CB3d(
      (conv1): CNA3d(
        (conv): Conv3d(80, 96, kernel_size=(3, 3, 3), stride=(1, 1, 1), padding=(1, 1, 1), bias=False)
        (norm): InstanceNorm3d(96, eps=1e-05, momentum=0.1, affine=True, track_running_stats=False)
        (activation): LeakyReLU(negative_slope=0.01, inplace=True)
      )
      (conv2): CNA3d(
        (conv): Conv3d(96, 96, kernel_size=(3, 3, 3), stride=(1, 1, 1), padding=(1, 1, 1), bias=False)
        (norm): InstanceNorm3d(96, eps=1e-05, momentum=0.1, affine=True, track_running_stats=False)
        (activation): LeakyReLU(negative_slope=0.01, inplace=True)
      )
    )
    (fuse): GatedFMU(
      (cg): ChannelGate(
        (fc1): Conv3d(160, 20, kernel_size=(1, 1, 1), stride=(1, 1, 1))
        (act): ReLU(inplace=True)
        (fc2): Conv3d(20, 80, kernel_size=(1, 1, 1), stride=(1, 1, 1))
      )
    )
  )
  (up21): Up(
    (CB2d): CB3d(
      (conv1): CNA3d(
        (conv): Conv3d(176, 80, kernel_size=(1, 3, 3), stride=(1, 1, 1), padding=(0, 1, 1), bias=False)
        (norm): InstanceNorm3d(80, eps=1e-05, momentum=0.1, affine=True, track_running_stats=False)
        (activation): LeakyReLU(negative_slope=0.01, inplace=True)
      )
      (conv2): CNA3d(
        (conv): Conv3d(80, 80, kernel_size=(1, 3, 3), stride=(1, 1, 1), padding=(0, 1, 1), bias=False)
        (norm): InstanceNorm3d(80, eps=1e-05, momentum=0.1, affine=True, track_running_stats=False)
        (activation): LeakyReLU(negative_slope=0.01, inplace=True)
      )
    )
    (CB3d): CB3d(
      (conv1): CNA3d(
        (conv): Conv3d(176, 80, kernel_size=(3, 3, 3), stride=(1, 1, 1), padding=(1, 1, 1), bias=False)
        (norm): InstanceNorm3d(80, eps=1e-05, momentum=0.1, affine=True, track_running_stats=False)
        (activation): LeakyReLU(negative_slope=0.01, inplace=True)
      )
      (conv2): CNA3d(
        (conv): Conv3d(80, 80, kernel_size=(3, 3, 3), stride=(1, 1, 1), padding=(1, 1, 1), bias=False)
        (norm): InstanceNorm3d(80, eps=1e-05, momentum=0.1, affine=True, track_running_stats=False)
        (activation): LeakyReLU(negative_slope=0.01, inplace=True)
      )
    )
    (fuse): GatedFMU(
      (cg): ChannelGate(
        (fc1): Conv3d(160, 20, kernel_size=(1, 1, 1), stride=(1, 1, 1))
        (act): ReLU(inplace=True)
        (fc2): Conv3d(20, 80, kernel_size=(1, 1, 1), stride=(1, 1, 1))
      )
    )
    (fuse_skip): GatedFMU(
      (cg): ChannelGate(
        (fc1): Conv3d(160, 20, kernel_size=(1, 1, 1), stride=(1, 1, 1))
        (act): ReLU(inplace=True)
        (fc2): Conv3d(20, 80, kernel_size=(1, 1, 1), stride=(1, 1, 1))
      )
    )
    (fuse_up): GatedFMU(
      (cg): ChannelGate(
        (fc1): Conv3d(192, 24, kernel_size=(1, 1, 1), stride=(1, 1, 1))
        (act): ReLU(inplace=True)
        (fc2): Conv3d(24, 96, kernel_size=(1, 1, 1), stride=(1, 1, 1))
      )
    )
  )
  (up22): Up(
    (CB2d): CB3d(
      (conv1): CNA3d(
        (conv): Conv3d(144, 64, kernel_size=(1, 3, 3), stride=(1, 1, 1), padding=(0, 1, 1), bias=False)
        (norm): InstanceNorm3d(64, eps=1e-05, momentum=0.1, affine=True, track_running_stats=False)
        (activation): LeakyReLU(negative_slope=0.01, inplace=True)
      )
      (conv2): CNA3d(
        (conv): Conv3d(64, 64, kernel_size=(1, 3, 3), stride=(1, 1, 1), padding=(0, 1, 1), bias=False)
        (norm): InstanceNorm3d(64, eps=1e-05, momentum=0.1, affine=True, track_running_stats=False)
        (activation): LeakyReLU(negative_slope=0.01, inplace=True)
      )
    )
    (CB3d): CB3d(
      (conv1): CNA3d(
        (conv): Conv3d(144, 64, kernel_size=(3, 3, 3), stride=(1, 1, 1), padding=(1, 1, 1), bias=False)
        (norm): InstanceNorm3d(64, eps=1e-05, momentum=0.1, affine=True, track_running_stats=False)
        (activation): LeakyReLU(negative_slope=0.01, inplace=True)
      )
      (conv2): CNA3d(
        (conv): Conv3d(64, 64, kernel_size=(3, 3, 3), stride=(1, 1, 1), padding=(1, 1, 1), bias=False)
        (norm): InstanceNorm3d(64, eps=1e-05, momentum=0.1, affine=True, track_running_stats=False)
        (activation): LeakyReLU(negative_slope=0.01, inplace=True)
      )
    )
    (fuse): GatedFMU(
      (cg): ChannelGate(
        (fc1): Conv3d(128, 16, kernel_size=(1, 1, 1), stride=(1, 1, 1))
        (act): ReLU(inplace=True)
        (fc2): Conv3d(16, 64, kernel_size=(1, 1, 1), stride=(1, 1, 1))
      )
    )
    (fuse_skip): GatedFMU(
      (cg): ChannelGate(
        (fc1): Conv3d(128, 16, kernel_size=(1, 1, 1), stride=(1, 1, 1))
        (act): ReLU(inplace=True)
        (fc2): Conv3d(16, 64, kernel_size=(1, 1, 1), stride=(1, 1, 1))
      )
    )
    (fuse_up): GatedFMU(
      (cg): ChannelGate(
        (fc1): Conv3d(160, 20, kernel_size=(1, 1, 1), stride=(1, 1, 1))
        (act): ReLU(inplace=True)
        (fc2): Conv3d(20, 80, kernel_size=(1, 1, 1), stride=(1, 1, 1))
      )
    )
  )
  (up23): Up(
    (CB3d): CB3d(
      (conv1): CNA3d(
        (conv): Conv3d(112, 48, kernel_size=(3, 3, 3), stride=(1, 1, 1), padding=(1, 1, 1), bias=False)
        (norm): InstanceNorm3d(48, eps=1e-05, momentum=0.1, affine=True, track_running_stats=False)
        (activation): LeakyReLU(negative_slope=0.01, inplace=True)
      )
      (conv2): CNA3d(
        (conv): Conv3d(48, 48, kernel_size=(3, 3, 3), stride=(1, 1, 1), padding=(1, 1, 1), bias=False)
        (norm): InstanceNorm3d(48, eps=1e-05, momentum=0.1, affine=True, track_running_stats=False)
        (activation): LeakyReLU(negative_slope=0.01, inplace=True)
      )
    )
    (fuse): GatedFMU(
      (cg): ChannelGate(
        (fc1): Conv3d(96, 12, kernel_size=(1, 1, 1), stride=(1, 1, 1))
        (act): ReLU(inplace=True)
        (fc2): Conv3d(12, 48, kernel_size=(1, 1, 1), stride=(1, 1, 1))
      )
    )
    (fuse_skip): GatedFMU(
      (cg): ChannelGate(
        (fc1): Conv3d(96, 12, kernel_size=(1, 1, 1), stride=(1, 1, 1))
        (act): ReLU(inplace=True)
        (fc2): Conv3d(12, 48, kernel_size=(1, 1, 1), stride=(1, 1, 1))
      )
    )
    (fuse_up): GatedFMU(
      (cg): ChannelGate(
        (fc1): Conv3d(128, 16, kernel_size=(1, 1, 1), stride=(1, 1, 1))
        (act): ReLU(inplace=True)
        (fc2): Conv3d(16, 64, kernel_size=(1, 1, 1), stride=(1, 1, 1))
      )
    )
  )
  (down31): Down(
    (CB2d): CB3d(
      (conv1): CNA3d(
        (conv): Conv3d(48, 64, kernel_size=(1, 3, 3), stride=(1, 1, 1), padding=(0, 1, 1), bias=False)
        (norm): InstanceNorm3d(64, eps=1e-05, momentum=0.1, affine=True, track_running_stats=False)
        (activation): LeakyReLU(negative_slope=0.01, inplace=True)
      )
      (conv2): CNA3d(
        (conv): Conv3d(64, 64, kernel_size=(1, 3, 3), stride=(1, 1, 1), padding=(0, 1, 1), bias=False)
        (norm): InstanceNorm3d(64, eps=1e-05, momentum=0.1, affine=True, track_running_stats=False)
        (activation): LeakyReLU(negative_slope=0.01, inplace=True)
      )
    )
    (CB3d): CB3d(
      (conv1): CNA3d(
        (conv): Conv3d(48, 64, kernel_size=(3, 3, 3), stride=(1, 1, 1), padding=(1, 1, 1), bias=False)
        (norm): InstanceNorm3d(64, eps=1e-05, momentum=0.1, affine=True, track_running_stats=False)
        (activation): LeakyReLU(negative_slope=0.01, inplace=True)
      )
      (conv2): CNA3d(
        (conv): Conv3d(64, 64, kernel_size=(3, 3, 3), stride=(1, 1, 1), padding=(1, 1, 1), bias=False)
        (norm): InstanceNorm3d(64, eps=1e-05, momentum=0.1, affine=True, track_running_stats=False)
        (activation): LeakyReLU(negative_slope=0.01, inplace=True)
      )
    )
  )
  (down32): Down(
    (CB2d): CB3d(
      (conv1): CNA3d(
        (conv): Conv3d(64, 80, kernel_size=(1, 3, 3), stride=(1, 1, 1), padding=(0, 1, 1), bias=False)
        (norm): InstanceNorm3d(80, eps=1e-05, momentum=0.1, affine=True, track_running_stats=False)
        (activation): LeakyReLU(negative_slope=0.01, inplace=True)
      )
      (conv2): CNA3d(
        (conv): Conv3d(80, 80, kernel_size=(1, 3, 3), stride=(1, 1, 1), padding=(0, 1, 1), bias=False)
        (norm): InstanceNorm3d(80, eps=1e-05, momentum=0.1, affine=True, track_running_stats=False)
        (activation): LeakyReLU(negative_slope=0.01, inplace=True)
      )
    )
    (CB3d): CB3d(
      (conv1): CNA3d(
        (conv): Conv3d(64, 80, kernel_size=(3, 3, 3), stride=(1, 1, 1), padding=(1, 1, 1), bias=False)
        (norm): InstanceNorm3d(80, eps=1e-05, momentum=0.1, affine=True, track_running_stats=False)
        (activation): LeakyReLU(negative_slope=0.01, inplace=True)
      )
      (conv2): CNA3d(
        (conv): Conv3d(80, 80, kernel_size=(3, 3, 3), stride=(1, 1, 1), padding=(1, 1, 1), bias=False)
        (norm): InstanceNorm3d(80, eps=1e-05, momentum=0.1, affine=True, track_running_stats=False)
        (activation): LeakyReLU(negative_slope=0.01, inplace=True)
      )
    )
    (fuse): GatedFMU(
      (cg): ChannelGate(
        (fc1): Conv3d(128, 16, kernel_size=(1, 1, 1), stride=(1, 1, 1))
        (act): ReLU(inplace=True)
        (fc2): Conv3d(16, 64, kernel_size=(1, 1, 1), stride=(1, 1, 1))
      )
    )
  )
  (bottleneck3): Down(
    (CB2d): CB3d(
      (conv1): CNA3d(
        (conv): Conv3d(80, 96, kernel_size=(1, 3, 3), stride=(1, 1, 1), padding=(0, 1, 1), bias=False)
        (norm): InstanceNorm3d(96, eps=1e-05, momentum=0.1, affine=True, track_running_stats=False)
        (activation): LeakyReLU(negative_slope=0.01, inplace=True)
      )
      (conv2): CNA3d(
        (conv): Conv3d(96, 96, kernel_size=(1, 3, 3), stride=(1, 1, 1), padding=(0, 1, 1), bias=False)
        (norm): InstanceNorm3d(96, eps=1e-05, momentum=0.1, affine=True, track_running_stats=False)
        (activation): LeakyReLU(negative_slope=0.01, inplace=True)
      )
    )
    (CB3d): CBzMamba(
      (pre): Conv3d(80, 40, kernel_size=(1, 1, 1), stride=(1, 1, 1), bias=False)
      (n1): InstanceNorm3d(40, eps=1e-05, momentum=0.1, affine=True, track_running_stats=False)
      (a1): LeakyReLU(negative_slope=0.01, inplace=True)
      (zssm): ZScan(
        (block): Mamba(
          (in_proj): Linear(in_features=40, out_features=160, bias=False)
          (conv1d): Conv1d(80, 80, kernel_size=(4,), stride=(1,), padding=(3,), groups=80)
          (act): SiLU()
          (x_proj): Linear(in_features=80, out_features=35, bias=False)
          (dt_proj): Linear(in_features=3, out_features=80, bias=True)
          (out_proj): Linear(in_features=80, out_features=40, bias=False)
        )
      )
      (post): Conv3d(40, 96, kernel_size=(1, 1, 1), stride=(1, 1, 1), bias=False)
      (n2): InstanceNorm3d(96, eps=1e-05, momentum=0.1, affine=True, track_running_stats=False)
      (a2): LeakyReLU(negative_slope=0.01, inplace=True)
    )
    (fuse): GatedFMU(
      (cg): ChannelGate(
        (fc1): Conv3d(160, 20, kernel_size=(1, 1, 1), stride=(1, 1, 1))
        (act): ReLU(inplace=True)
        (fc2): Conv3d(20, 80, kernel_size=(1, 1, 1), stride=(1, 1, 1))
      )
    )
  )
  (up31): Up(
    (CB2d): CB3d(
      (conv1): CNA3d(
        (conv): Conv3d(176, 80, kernel_size=(1, 3, 3), stride=(1, 1, 1), padding=(0, 1, 1), bias=False)
        (norm): InstanceNorm3d(80, eps=1e-05, momentum=0.1, affine=True, track_running_stats=False)
        (activation): LeakyReLU(negative_slope=0.01, inplace=True)
      )
      (conv2): CNA3d(
        (conv): Conv3d(80, 80, kernel_size=(1, 3, 3), stride=(1, 1, 1), padding=(0, 1, 1), bias=False)
        (norm): InstanceNorm3d(80, eps=1e-05, momentum=0.1, affine=True, track_running_stats=False)
        (activation): LeakyReLU(negative_slope=0.01, inplace=True)
      )
    )
    (CB3d): CB3d(
      (conv1): CNA3d(
        (conv): Conv3d(176, 80, kernel_size=(3, 3, 3), stride=(1, 1, 1), padding=(1, 1, 1), bias=False)
        (norm): InstanceNorm3d(80, eps=1e-05, momentum=0.1, affine=True, track_running_stats=False)
        (activation): LeakyReLU(negative_slope=0.01, inplace=True)
      )
      (conv2): CNA3d(
        (conv): Conv3d(80, 80, kernel_size=(3, 3, 3), stride=(1, 1, 1), padding=(1, 1, 1), bias=False)
        (norm): InstanceNorm3d(80, eps=1e-05, momentum=0.1, affine=True, track_running_stats=False)
        (activation): LeakyReLU(negative_slope=0.01, inplace=True)
      )
    )
    (fuse): GatedFMU(
      (cg): ChannelGate(
        (fc1): Conv3d(160, 20, kernel_size=(1, 1, 1), stride=(1, 1, 1))
        (act): ReLU(inplace=True)
        (fc2): Conv3d(20, 80, kernel_size=(1, 1, 1), stride=(1, 1, 1))
      )
    )
    (fuse_skip): GatedFMU(
      (cg): ChannelGate(
        (fc1): Conv3d(160, 20, kernel_size=(1, 1, 1), stride=(1, 1, 1))
        (act): ReLU(inplace=True)
        (fc2): Conv3d(20, 80, kernel_size=(1, 1, 1), stride=(1, 1, 1))
      )
    )
    (fuse_up): GatedFMU(
      (cg): ChannelGate(
        (fc1): Conv3d(192, 24, kernel_size=(1, 1, 1), stride=(1, 1, 1))
        (act): ReLU(inplace=True)
        (fc2): Conv3d(24, 96, kernel_size=(1, 1, 1), stride=(1, 1, 1))
      )
    )
  )
  (up32): Up(
    (CB3d): CB3d(
      (conv1): CNA3d(
        (conv): Conv3d(144, 64, kernel_size=(3, 3, 3), stride=(1, 1, 1), padding=(1, 1, 1), bias=False)
        (norm): InstanceNorm3d(64, eps=1e-05, momentum=0.1, affine=True, track_running_stats=False)
        (activation): LeakyReLU(negative_slope=0.01, inplace=True)
      )
      (conv2): CNA3d(
        (conv): Conv3d(64, 64, kernel_size=(3, 3, 3), stride=(1, 1, 1), padding=(1, 1, 1), bias=False)
        (norm): InstanceNorm3d(64, eps=1e-05, momentum=0.1, affine=True, track_running_stats=False)
        (activation): LeakyReLU(negative_slope=0.01, inplace=True)
      )
    )
    (fuse): GatedFMU(
      (cg): ChannelGate(
        (fc1): Conv3d(128, 16, kernel_size=(1, 1, 1), stride=(1, 1, 1))
        (act): ReLU(inplace=True)
        (fc2): Conv3d(16, 64, kernel_size=(1, 1, 1), stride=(1, 1, 1))
      )
    )
    (fuse_skip): GatedFMU(
      (cg): ChannelGate(
        (fc1): Conv3d(128, 16, kernel_size=(1, 1, 1), stride=(1, 1, 1))
        (act): ReLU(inplace=True)
        (fc2): Conv3d(16, 64, kernel_size=(1, 1, 1), stride=(1, 1, 1))
      )
    )
    (fuse_up): GatedFMU(
      (cg): ChannelGate(
        (fc1): Conv3d(160, 20, kernel_size=(1, 1, 1), stride=(1, 1, 1))
        (act): ReLU(inplace=True)
        (fc2): Conv3d(20, 80, kernel_size=(1, 1, 1), stride=(1, 1, 1))
      )
    )
  )
  (down41): Down(
    (CB2d): CB3d(
      (conv1): CNA3d(
        (conv): Conv3d(64, 80, kernel_size=(1, 3, 3), stride=(1, 1, 1), padding=(0, 1, 1), bias=False)
        (norm): InstanceNorm3d(80, eps=1e-05, momentum=0.1, affine=True, track_running_stats=False)
        (activation): LeakyReLU(negative_slope=0.01, inplace=True)
      )
      (conv2): CNA3d(
        (conv): Conv3d(80, 80, kernel_size=(1, 3, 3), stride=(1, 1, 1), padding=(0, 1, 1), bias=False)
        (norm): InstanceNorm3d(80, eps=1e-05, momentum=0.1, affine=True, track_running_stats=False)
        (activation): LeakyReLU(negative_slope=0.01, inplace=True)
      )
    )
    (CB3d): CB3d(
      (conv1): CNA3d(
        (conv): Conv3d(64, 80, kernel_size=(3, 3, 3), stride=(1, 1, 1), padding=(1, 1, 1), bias=False)
        (norm): InstanceNorm3d(80, eps=1e-05, momentum=0.1, affine=True, track_running_stats=False)
        (activation): LeakyReLU(negative_slope=0.01, inplace=True)
      )
      (conv2): CNA3d(
        (conv): Conv3d(80, 80, kernel_size=(3, 3, 3), stride=(1, 1, 1), padding=(1, 1, 1), bias=False)
        (norm): InstanceNorm3d(80, eps=1e-05, momentum=0.1, affine=True, track_running_stats=False)
        (activation): LeakyReLU(negative_slope=0.01, inplace=True)
      )
    )
  )
  (bottleneck4): Down(
    (CB2d): CB3d(
      (conv1): CNA3d(
        (conv): Conv3d(80, 96, kernel_size=(1, 3, 3), stride=(1, 1, 1), padding=(0, 1, 1), bias=False)
        (norm): InstanceNorm3d(96, eps=1e-05, momentum=0.1, affine=True, track_running_stats=False)
        (activation): LeakyReLU(negative_slope=0.01, inplace=True)
      )
      (conv2): CNA3d(
        (conv): Conv3d(96, 96, kernel_size=(1, 3, 3), stride=(1, 1, 1), padding=(0, 1, 1), bias=False)
        (norm): InstanceNorm3d(96, eps=1e-05, momentum=0.1, affine=True, track_running_stats=False)
        (activation): LeakyReLU(negative_slope=0.01, inplace=True)
      )
    )
    (CB3d): CBzMamba(
      (pre): Conv3d(80, 40, kernel_size=(1, 1, 1), stride=(1, 1, 1), bias=False)
      (n1): InstanceNorm3d(40, eps=1e-05, momentum=0.1, affine=True, track_running_stats=False)
      (a1): LeakyReLU(negative_slope=0.01, inplace=True)
      (zssm): ZScan(
        (block): Mamba(
          (in_proj): Linear(in_features=40, out_features=160, bias=False)
          (conv1d): Conv1d(80, 80, kernel_size=(4,), stride=(1,), padding=(3,), groups=80)
          (act): SiLU()
          (x_proj): Linear(in_features=80, out_features=35, bias=False)
          (dt_proj): Linear(in_features=3, out_features=80, bias=True)
          (out_proj): Linear(in_features=80, out_features=40, bias=False)
        )
      )
      (post): Conv3d(40, 96, kernel_size=(1, 1, 1), stride=(1, 1, 1), bias=False)
      (n2): InstanceNorm3d(96, eps=1e-05, momentum=0.1, affine=True, track_running_stats=False)
      (a2): LeakyReLU(negative_slope=0.01, inplace=True)
    )
    (fuse): GatedFMU(
      (cg): ChannelGate(
        (fc1): Conv3d(160, 20, kernel_size=(1, 1, 1), stride=(1, 1, 1))
        (act): ReLU(inplace=True)
        (fc2): Conv3d(20, 80, kernel_size=(1, 1, 1), stride=(1, 1, 1))
      )
    )
  )
  (up41): Up(
    (CB3d): CB3d(
      (conv1): CNA3d(
        (conv): Conv3d(176, 80, kernel_size=(3, 3, 3), stride=(1, 1, 1), padding=(1, 1, 1), bias=False)
        (norm): InstanceNorm3d(80, eps=1e-05, momentum=0.1, affine=True, track_running_stats=False)
        (activation): LeakyReLU(negative_slope=0.01, inplace=True)
      )
      (conv2): CNA3d(
        (conv): Conv3d(80, 80, kernel_size=(3, 3, 3), stride=(1, 1, 1), padding=(1, 1, 1), bias=False)
        (norm): InstanceNorm3d(80, eps=1e-05, momentum=0.1, affine=True, track_running_stats=False)
        (activation): LeakyReLU(negative_slope=0.01, inplace=True)
      )
    )
    (fuse): GatedFMU(
      (cg): ChannelGate(
        (fc1): Conv3d(160, 20, kernel_size=(1, 1, 1), stride=(1, 1, 1))
        (act): ReLU(inplace=True)
        (fc2): Conv3d(20, 80, kernel_size=(1, 1, 1), stride=(1, 1, 1))
      )
    )
    (fuse_skip): GatedFMU(
      (cg): ChannelGate(
        (fc1): Conv3d(160, 20, kernel_size=(1, 1, 1), stride=(1, 1, 1))
        (act): ReLU(inplace=True)
        (fc2): Conv3d(20, 80, kernel_size=(1, 1, 1), stride=(1, 1, 1))
      )
    )
    (fuse_up): GatedFMU(
      (cg): ChannelGate(
        (fc1): Conv3d(192, 24, kernel_size=(1, 1, 1), stride=(1, 1, 1))
        (act): ReLU(inplace=True)
        (fc2): Conv3d(24, 96, kernel_size=(1, 1, 1), stride=(1, 1, 1))
      )
    )
  )
  (bottleneck5): Down(
    (CB3d): CBzMamba(
      (pre): Conv3d(80, 40, kernel_size=(1, 1, 1), stride=(1, 1, 1), bias=False)
      (n1): InstanceNorm3d(40, eps=1e-05, momentum=0.1, affine=True, track_running_stats=False)
      (a1): LeakyReLU(negative_slope=0.01, inplace=True)
      (zssm): ZScan(
        (block): Mamba(
          (in_proj): Linear(in_features=40, out_features=160, bias=False)
          (conv1d): Conv1d(80, 80, kernel_size=(4,), stride=(1,), padding=(3,), groups=80)
          (act): SiLU()
          (x_proj): Linear(in_features=80, out_features=35, bias=False)
          (dt_proj): Linear(in_features=3, out_features=80, bias=True)
          (out_proj): Linear(in_features=80, out_features=40, bias=False)
        )
      )
      (post): Conv3d(40, 96, kernel_size=(1, 1, 1), stride=(1, 1, 1), bias=False)
      (n2): InstanceNorm3d(96, eps=1e-05, momentum=0.1, affine=True, track_running_stats=False)
      (a2): LeakyReLU(negative_slope=0.01, inplace=True)
    )
  )
  (outputs): ModuleList(
    (0): Conv3d(32, 3, kernel_size=(1, 1, 1), stride=(1, 1, 1), bias=False)
    (1-2): 2 x Conv3d(48, 3, kernel_size=(1, 1, 1), stride=(1, 1, 1), bias=False)
    (3-4): 2 x Conv3d(64, 3, kernel_size=(1, 1, 1), stride=(1, 1, 1), bias=False)
    (5-6): 2 x Conv3d(80, 3, kernel_size=(1, 1, 1), stride=(1, 1, 1), bias=False)
  )
) 
2025-11-19 10:35:52.714435: 
 
2025-11-19 10:35:52.723397: 
epoch:  0 
2025-11-19 10:41:26.049067: train loss : 0.0159 
…
