Starting... 
2025-11-18 22:15:59.677608: Training config: max_epochs=1, gated_fusion=spatial 
2025-11-18 22:16:00.366666: Model params: total=8,769,484, trainable=8,769,484 
2025-11-18 22:16:05.374784: Unable to plot network architecture: 
2025-11-18 22:16:05.384904: No module named 'hiddenlayer' 
2025-11-18 22:16:05.396529: 
printing the network instead:
 
2025-11-18 22:16:05.408812: MNet(
  (down11): Down(
    (CB2d): CB3d(
      (conv1): CNA3d(
        (conv): Conv3d(1, 32, kernel_size=(1, 3, 3), stride=(1, 1, 1), padding=(0, 1, 1), bias=False)
        (norm): InstanceNorm3d(32, eps=1e-05, momentum=0.1, affine=True, track_running_stats=False)
        (activation): LeakyReLU(negative_slope=0.01, inplace=True)
      )
      (conv2): CNA3d(
        (conv): Conv3d(32, 32, kernel_size=(1, 3, 3), stride=(1, 1, 1), padding=(0, 1, 1), bias=False)
        (norm): InstanceNorm3d(32, eps=1e-05, momentum=0.1, affine=True, track_running_stats=False)
        (activation): LeakyReLU(negative_slope=0.01, inplace=True)
      )
    )
    (CB3d): CB3d(
      (conv1): CNA3d(
        (conv): Conv3d(1, 32, kernel_size=(3, 3, 3), stride=(1, 1, 1), padding=(1, 1, 1), bias=False)
        (norm): InstanceNorm3d(32, eps=1e-05, momentum=0.1, affine=True, track_running_stats=False)
        (activation): LeakyReLU(negative_slope=0.01, inplace=True)
      )
      (conv2): CNA3d(
        (conv): Conv3d(32, 32, kernel_size=(3, 3, 3), stride=(1, 1, 1), padding=(1, 1, 1), bias=False)
        (norm): InstanceNorm3d(32, eps=1e-05, momentum=0.1, affine=True, track_running_stats=False)
        (activation): LeakyReLU(negative_slope=0.01, inplace=True)
      )
    )
  )
  (down12): Down(
    (CB2d): CB3d(
      (conv1): CNA3d(
        (conv): Conv3d(32, 48, kernel_size=(1, 3, 3), stride=(1, 1, 1), padding=(0, 1, 1), bias=False)
        (norm): InstanceNorm3d(48, eps=1e-05, momentum=0.1, affine=True, track_running_stats=False)
        (activation): LeakyReLU(negative_slope=0.01, inplace=True)
      )
      (conv2): CNA3d(
        (conv): Conv3d(48, 48, kernel_size=(1, 3, 3), stride=(1, 1, 1), padding=(0, 1, 1), bias=False)
        (norm): InstanceNorm3d(48, eps=1e-05, momentum=0.1, affine=True, track_running_stats=False)
        (activation): LeakyReLU(negative_slope=0.01, inplace=True)
      )
    )
    (CB3d): CB3d(
      (conv1): CNA3d(
        (conv): Conv3d(32, 48, kernel_size=(3, 3, 3), stride=(1, 1, 1), padding=(1, 1, 1), bias=False)
        (norm): InstanceNorm3d(48, eps=1e-05, momentum=0.1, affine=True, track_running_stats=False)
        (activation): LeakyReLU(negative_slope=0.01, inplace=True)
      )
      (conv2): CNA3d(
        (conv): Conv3d(48, 48, kernel_size=(3, 3, 3), stride=(1, 1, 1), padding=(1, 1, 1), bias=False)
        (norm): InstanceNorm3d(48, eps=1e-05, momentum=0.1, affine=True, track_running_stats=False)
        (activation): LeakyReLU(negative_slope=0.01, inplace=True)
      )
    )
  )
  (down13): Down(
    (CB2d): CB3d(
      (conv1): CNA3d(
        (conv): Conv3d(48, 64, kernel_size=(1, 3, 3), stride=(1, 1, 1), padding=(0, 1, 1), bias=False)
        (norm): InstanceNorm3d(64, eps=1e-05, momentum=0.1, affine=True, track_running_stats=False)
        (activation): LeakyReLU(negative_slope=0.01, inplace=True)
      )
      (conv2): CNA3d(
        (conv): Conv3d(64, 64, kernel_size=(1, 3, 3), stride=(1, 1, 1), padding=(0, 1, 1), bias=False)
        (norm): InstanceNorm3d(64, eps=1e-05, momentum=0.1, affine=True, track_running_stats=False)
        (activation): LeakyReLU(negative_slope=0.01, inplace=True)
      )
    )
    (CB3d): CB3d(
      (conv1): CNA3d(
        (conv): Conv3d(48, 64, kernel_size=(3, 3, 3), stride=(1, 1, 1), padding=(1, 1, 1), bias=False)
        (norm): InstanceNorm3d(64, eps=1e-05, momentum=0.1, affine=True, track_running_stats=False)
        (activation): LeakyReLU(negative_slope=0.01, inplace=True)
      )
      (conv2): CNA3d(
        (conv): Conv3d(64, 64, kernel_size=(3, 3, 3), stride=(1, 1, 1), padding=(1, 1, 1), bias=False)
        (norm): InstanceNorm3d(64, eps=1e-05, momentum=0.1, affine=True, track_running_stats=False)
        (activation): LeakyReLU(negative_slope=0.01, inplace=True)
      )
    )
  )
  (down14): Down(
    (CB2d): CB3d(
      (conv1): CNA3d(
        (conv): Conv3d(64, 80, kernel_size=(1, 3, 3), stride=(1, 1, 1), padding=(0, 1, 1), bias=False)
        (norm): InstanceNorm3d(80, eps=1e-05, momentum=0.1, affine=True, track_running_stats=False)
        (activation): LeakyReLU(negative_slope=0.01, inplace=True)
      )
      (conv2): CNA3d(
        (conv): Conv3d(80, 80, kernel_size=(1, 3, 3), stride=(1, 1, 1), padding=(0, 1, 1), bias=False)
        (norm): InstanceNorm3d(80, eps=1e-05, momentum=0.1, affine=True, track_running_stats=False)
        (activation): LeakyReLU(negative_slope=0.01, inplace=True)
      )
    )
    (CB3d): CB3d(
      (conv1): CNA3d(
        (conv): Conv3d(64, 80, kernel_size=(3, 3, 3), stride=(1, 1, 1), padding=(1, 1, 1), bias=False)
        (norm): InstanceNorm3d(80, eps=1e-05, momentum=0.1, affine=True, track_running_stats=False)
        (activation): LeakyReLU(negative_slope=0.01, inplace=True)
      )
      (conv2): CNA3d(
        (conv): Conv3d(80, 80, kernel_size=(3, 3, 3), stride=(1, 1, 1), padding=(1, 1, 1), bias=False)
        (norm): InstanceNorm3d(80, eps=1e-05, momentum=0.1, affine=True, track_running_stats=False)
        (activation): LeakyReLU(negative_slope=0.01, inplace=True)
      )
    )
  )
  (bottleneck1): Down(
    (CB2d): CB3d(
      (conv1): CNA3d(
        (conv): Conv3d(80, 96, kernel_size=(1, 3, 3), stride=(1, 1, 1), padding=(0, 1, 1), bias=False)
        (norm): InstanceNorm3d(96, eps=1e-05, momentum=0.1, affine=True, track_running_stats=False)
        (activation): LeakyReLU(negative_slope=0.01, inplace=True)
      )
      (conv2): CNA3d(
        (conv): Conv3d(96, 96, kernel_size=(1, 3, 3), stride=(1, 1, 1), padding=(0, 1, 1), bias=False)
        (norm): InstanceNorm3d(96, eps=1e-05, momentum=0.1, affine=True, track_running_stats=False)
        (activation): LeakyReLU(negative_slope=0.01, inplace=True)
      )
    )
  )
  (up11): Up(
    (CB2d): CB3d(
      (conv1): CNA3d(
        (conv): Conv3d(176, 80, kernel_size=(1, 3, 3), stride=(1, 1, 1), padding=(0, 1, 1), bias=False)
        (norm): InstanceNorm3d(80, eps=1e-05, momentum=0.1, affine=True, track_running_stats=False)
        (activation): LeakyReLU(negative_slope=0.01, inplace=True)
      )
      (conv2): CNA3d(
        (conv): Conv3d(80, 80, kernel_size=(1, 3, 3), stride=(1, 1, 1), padding=(0, 1, 1), bias=False)
        (norm): InstanceNorm3d(80, eps=1e-05, momentum=0.1, affine=True, track_running_stats=False)
        (activation): LeakyReLU(negative_slope=0.01, inplace=True)
      )
    )
    (fuse): GatedFMU(
      (sg): SpatialGate(
        (conv): Conv3d(2, 1, kernel_size=(1, 1, 1), stride=(1, 1, 1))
      )
    )
    (fuse_skip): GatedFMU(
      (sg): SpatialGate(
        (conv): Conv3d(2, 1, kernel_size=(1, 1, 1), stride=(1, 1, 1))
      )
    )
    (fuse_up): GatedFMU(
      (sg): SpatialGate(
        (conv): Conv3d(2, 1, kernel_size=(1, 1, 1), stride=(1, 1, 1))
      )
    )
  )
  (up12): Up(
    (CB2d): CB3d(
      (conv1): CNA3d(
        (conv): Conv3d(144, 64, kernel_size=(1, 3, 3), stride=(1, 1, 1), padding=(0, 1, 1), bias=False)
        (norm): InstanceNorm3d(64, eps=1e-05, momentum=0.1, affine=True, track_running_stats=False)
        (activation): LeakyReLU(negative_slope=0.01, inplace=True)
      )
      (conv2): CNA3d(
        (conv): Conv3d(64, 64, kernel_size=(1, 3, 3), stride=(1, 1, 1), padding=(0, 1, 1), bias=False)
        (norm): InstanceNorm3d(64, eps=1e-05, momentum=0.1, affine=True, track_running_stats=False)
        (activation): LeakyReLU(negative_slope=0.01, inplace=True)
      )
    )
    (fuse): GatedFMU(
      (sg): SpatialGate(
        (conv): Conv3d(2, 1, kernel_size=(1, 1, 1), stride=(1, 1, 1))
      )
    )
    (fuse_skip): GatedFMU(
      (sg): SpatialGate(
        (conv): Conv3d(2, 1, kernel_size=(1, 1, 1), stride=(1, 1, 1))
      )
    )
    (fuse_up): GatedFMU(
      (sg): SpatialGate(
        (conv): Conv3d(2, 1, kernel_size=(1, 1, 1), stride=(1, 1, 1))
      )
    )
  )
  (up13): Up(
    (CB2d): CB3d(
      (conv1): CNA3d(
        (conv): Conv3d(112, 48, kernel_size=(1, 3, 3), stride=(1, 1, 1), padding=(0, 1, 1), bias=False)
        (norm): InstanceNorm3d(48, eps=1e-05, momentum=0.1, affine=True, track_running_stats=False)
        (activation): LeakyReLU(negative_slope=0.01, inplace=True)
      )
      (conv2): CNA3d(
        (conv): Conv3d(48, 48, kernel_size=(1, 3, 3), stride=(1, 1, 1), padding=(0, 1, 1), bias=False)
        (norm): InstanceNorm3d(48, eps=1e-05, momentum=0.1, affine=True, track_running_stats=False)
        (activation): LeakyReLU(negative_slope=0.01, inplace=True)
      )
    )
    (fuse): GatedFMU(
      (sg): SpatialGate(
        (conv): Conv3d(2, 1, kernel_size=(1, 1, 1), stride=(1, 1, 1))
      )
    )
    (fuse_skip): GatedFMU(
      (sg): SpatialGate(
        (conv): Conv3d(2, 1, kernel_size=(1, 1, 1), stride=(1, 1, 1))
      )
    )
    (fuse_up): GatedFMU(
      (sg): SpatialGate(
        (conv): Conv3d(2, 1, kernel_size=(1, 1, 1), stride=(1, 1, 1))
      )
    )
  )
  (up14): Up(
    (CB2d): CB3d(
      (conv1): CNA3d(
        (conv): Conv3d(80, 32, kernel_size=(1, 3, 3), stride=(1, 1, 1), padding=(0, 1, 1), bias=False)
        (norm): InstanceNorm3d(32, eps=1e-05, momentum=0.1, affine=True, track_running_stats=False)
        (activation): LeakyReLU(negative_slope=0.01, inplace=True)
      )
      (conv2): CNA3d(
        (conv): Conv3d(32, 32, kernel_size=(1, 3, 3), stride=(1, 1, 1), padding=(0, 1, 1), bias=False)
        (norm): InstanceNorm3d(32, eps=1e-05, momentum=0.1, affine=True, track_running_stats=False)
        (activation): LeakyReLU(negative_slope=0.01, inplace=True)
      )
    )
    (CB3d): CB3d(
      (conv1): CNA3d(
        (conv): Conv3d(80, 32, kernel_size=(3, 3, 3), stride=(1, 1, 1), padding=(1, 1, 1), bias=False)
        (norm): InstanceNorm3d(32, eps=1e-05, momentum=0.1, affine=True, track_running_stats=False)
        (activation): LeakyReLU(negative_slope=0.01, inplace=True)
      )
      (conv2): CNA3d(
        (conv): Conv3d(32, 32, kernel_size=(3, 3, 3), stride=(1, 1, 1), padding=(1, 1, 1), bias=False)
        (norm): InstanceNorm3d(32, eps=1e-05, momentum=0.1, affine=True, track_running_stats=False)
        (activation): LeakyReLU(negative_slope=0.01, inplace=True)
      )
    )
    (fuse): GatedFMU(
      (sg): SpatialGate(
        (conv): Conv3d(2, 1, kernel_size=(1, 1, 1), stride=(1, 1, 1))
      )
    )
    (fuse_skip): GatedFMU(
      (sg): SpatialGate(
        (conv): Conv3d(2, 1, kernel_size=(1, 1, 1), stride=(1, 1, 1))
      )
    )
    (fuse_up): GatedFMU(
      (sg): SpatialGate(
        (conv): Conv3d(2, 1, kernel_size=(1, 1, 1), stride=(1, 1, 1))
      )
    )
  )
  (down21): Down(
    (CB2d): CB3d(
      (conv1): CNA3d(
        (conv): Conv3d(32, 48, kernel_size=(1, 3, 3), stride=(1, 1, 1), padding=(0, 1, 1), bias=False)
        (norm): InstanceNorm3d(48, eps=1e-05, momentum=0.1, affine=True, track_running_stats=False)
        (activation): LeakyReLU(negative_slope=0.01, inplace=True)
      )
      (conv2): CNA3d(
        (conv): Conv3d(48, 48, kernel_size=(1, 3, 3), stride=(1, 1, 1), padding=(0, 1, 1), bias=False)
        (norm): InstanceNorm3d(48, eps=1e-05, momentum=0.1, affine=True, track_running_stats=False)
        (activation): LeakyReLU(negative_slope=0.01, inplace=True)
      )
    )
    (CB3d): CB3d(
      (conv1): CNA3d(
        (conv): Conv3d(32, 48, kernel_size=(3, 3, 3), stride=(1, 1, 1), padding=(1, 1, 1), bias=False)
        (norm): InstanceNorm3d(48, eps=1e-05, momentum=0.1, affine=True, track_running_stats=False)
        (activation): LeakyReLU(negative_slope=0.01, inplace=True)
      )
      (conv2): CNA3d(
        (conv): Conv3d(48, 48, kernel_size=(3, 3, 3), stride=(1, 1, 1), padding=(1, 1, 1), bias=False)
        (norm): InstanceNorm3d(48, eps=1e-05, momentum=0.1, affine=True, track_running_stats=False)
        (activation): LeakyReLU(negative_slope=0.01, inplace=True)
      )
    )
  )
  (down22): Down(
    (CB2d): CB3d(
      (conv1): CNA3d(
        (conv): Conv3d(48, 64, kernel_size=(1, 3, 3), stride=(1, 1, 1), padding=(0, 1, 1), bias=False)
        (norm): InstanceNorm3d(64, eps=1e-05, momentum=0.1, affine=True, track_running_stats=False)
        (activation): LeakyReLU(negative_slope=0.01, inplace=True)
      )
      (conv2): CNA3d(
        (conv): Conv3d(64, 64, kernel_size=(1, 3, 3), stride=(1, 1, 1), padding=(0, 1, 1), bias=False)
        (norm): InstanceNorm3d(64, eps=1e-05, momentum=0.1, affine=True, track_running_stats=False)
        (activation): LeakyReLU(negative_slope=0.01, inplace=True)
      )
    )
    (CB3d): CB3d(
      (conv1): CNA3d(
        (conv): Conv3d(48, 64, kernel_size=(3, 3, 3), stride=(1, 1, 1), padding=(1, 1, 1), bias=False)
        (norm): InstanceNorm3d(64, eps=1e-05, momentum=0.1, affine=True, track_running_stats=False)
        (activation): LeakyReLU(negative_slope=0.01, inplace=True)
      )
      (conv2): CNA3d(
        (conv): Conv3d(64, 64, kernel_size=(3, 3, 3), stride=(1, 1, 1), padding=(1, 1, 1), bias=False)
        (norm): InstanceNorm3d(64, eps=1e-05, momentum=0.1, affine=True, track_running_stats=False)
        (activation): LeakyReLU(negative_slope=0.01, inplace=True)
      )
    )
    (fuse): GatedFMU(
      (sg): SpatialGate(
        (conv): Conv3d(2, 1, kernel_size=(1, 1, 1), stride=(1, 1, 1))
      )
    )
  )
  (down23): Down(
    (CB2d): CB3d(
      (conv1): CNA3d(
        (conv): Conv3d(64, 80, kernel_size=(1, 3, 3), stride=(1, 1, 1), padding=(0, 1, 1), bias=False)
        (norm): InstanceNorm3d(80, eps=1e-05, momentum=0.1, affine=True, track_running_stats=False)
        (activation): LeakyReLU(negative_slope=0.01, inplace=True)
      )
      (conv2): CNA3d(
        (conv): Conv3d(80, 80, kernel_size=(1, 3, 3), stride=(1, 1, 1), padding=(0, 1, 1), bias=False)
        (norm): InstanceNorm3d(80, eps=1e-05, momentum=0.1, affine=True, track_running_stats=False)
        (activation): LeakyReLU(negative_slope=0.01, inplace=True)
      )
    )
    (CB3d): CB3d(
      (conv1): CNA3d(
        (conv): Conv3d(64, 80, kernel_size=(3, 3, 3), stride=(1, 1, 1), padding=(1, 1, 1), bias=False)
        (norm): InstanceNorm3d(80, eps=1e-05, momentum=0.1, affine=True, track_running_stats=False)
        (activation): LeakyReLU(negative_slope=0.01, inplace=True)
      )
      (conv2): CNA3d(
        (conv): Conv3d(80, 80, kernel_size=(3, 3, 3), stride=(1, 1, 1), padding=(1, 1, 1), bias=False)
        (norm): InstanceNorm3d(80, eps=1e-05, momentum=0.1, affine=True, track_running_stats=False)
        (activation): LeakyReLU(negative_slope=0.01, inplace=True)
      )
    )
    (fuse): GatedFMU(
      (sg): SpatialGate(
        (conv): Conv3d(2, 1, kernel_size=(1, 1, 1), stride=(1, 1, 1))
      )
    )
  )
  (bottleneck2): Down(
    (CB2d): CB3d(
      (conv1): CNA3d(
        (conv): Conv3d(80, 96, kernel_size=(1, 3, 3), stride=(1, 1, 1), padding=(0, 1, 1), bias=False)
        (norm): InstanceNorm3d(96, eps=1e-05, momentum=0.1, affine=True, track_running_stats=False)
        (activation): LeakyReLU(negative_slope=0.01, inplace=True)
      )
      (conv2): CNA3d(
        (conv): Conv3d(96, 96, kernel_size=(1, 3, 3), stride=(1, 1, 1), padding=(0, 1, 1), bias=False)
        (norm): InstanceNorm3d(96, eps=1e-05, momentum=0.1, affine=True, track_running_stats=False)
        (activation): LeakyReLU(negative_slope=0.01, inplace=True)
      )
    )
    (CB3d): CB3d(
      (conv1): CNA3d(
        (conv): Conv3d(80, 96, kernel_size=(3, 3, 3), stride=(1, 1, 1), padding=(1, 1, 1), bias=False)
        (norm): InstanceNorm3d(96, eps=1e-05, momentum=0.1, affine=True, track_running_stats=False)
        (activation): LeakyReLU(negative_slope=0.01, inplace=True)
      )
      (conv2): CNA3d(
        (conv): Conv3d(96, 96, kernel_size=(3, 3, 3), stride=(1, 1, 1), padding=(1, 1, 1), bias=False)
        (norm): InstanceNorm3d(96, eps=1e-05, momentum=0.1, affine=True, track_running_stats=False)
        (activation): LeakyReLU(negative_slope=0.01, inplace=True)
      )
    )
    (fuse): GatedFMU(
      (sg): SpatialGate(
        (conv): Conv3d(2, 1, kernel_size=(1, 1, 1), stride=(1, 1, 1))
      )
    )
  )
  (up21): Up(
    (CB2d): CB3d(
      (conv1): CNA3d(
        (conv): Conv3d(176, 80, kernel_size=(1, 3, 3), stride=(1, 1, 1), padding=(0, 1, 1), bias=False)
        (norm): InstanceNorm3d(80, eps=1e-05, momentum=0.1, affine=True, track_running_stats=False)
        (activation): LeakyReLU(negative_slope=0.01, inplace=True)
      )
      (conv2): CNA3d(
        (conv): Conv3d(80, 80, kernel_size=(1, 3, 3), stride=(1, 1, 1), padding=(0, 1, 1), bias=False)
        (norm): InstanceNorm3d(80, eps=1e-05, momentum=0.1, affine=True, track_running_stats=False)
        (activation): LeakyReLU(negative_slope=0.01, inplace=True)
      )
    )
    (CB3d): CB3d(
      (conv1): CNA3d(
        (conv): Conv3d(176, 80, kernel_size=(3, 3, 3), stride=(1, 1, 1), padding=(1, 1, 1), bias=False)
        (norm): InstanceNorm3d(80, eps=1e-05, momentum=0.1, affine=True, track_running_stats=False)
        (activation): LeakyReLU(negative_slope=0.01, inplace=True)
      )
      (conv2): CNA3d(
        (conv): Conv3d(80, 80, kernel_size=(3, 3, 3), stride=(1, 1, 1), padding=(1, 1, 1), bias=False)
        (norm): InstanceNorm3d(80, eps=1e-05, momentum=0.1, affine=True, track_running_stats=False)
        (activation): LeakyReLU(negative_slope=0.01, inplace=True)
      )
    )
    (fuse): GatedFMU(
      (sg): SpatialGate(
        (conv): Conv3d(2, 1, kernel_size=(1, 1, 1), stride=(1, 1, 1))
      )
    )
    (fuse_skip): GatedFMU(
      (sg): SpatialGate(
        (conv): Conv3d(2, 1, kernel_size=(1, 1, 1), stride=(1, 1, 1))
      )
    )
    (fuse_up): GatedFMU(
      (sg): SpatialGate(
        (conv): Conv3d(2, 1, kernel_size=(1, 1, 1), stride=(1, 1, 1))
      )
    )
  )
  (up22): Up(
    (CB2d): CB3d(
      (conv1): CNA3d(
        (conv): Conv3d(144, 64, kernel_size=(1, 3, 3), stride=(1, 1, 1), padding=(0, 1, 1), bias=False)
        (norm): InstanceNorm3d(64, eps=1e-05, momentum=0.1, affine=True, track_running_stats=False)
        (activation): LeakyReLU(negative_slope=0.01, inplace=True)
      )
      (conv2): CNA3d(
        (conv): Conv3d(64, 64, kernel_size=(1, 3, 3), stride=(1, 1, 1), padding=(0, 1, 1), bias=False)
        (norm): InstanceNorm3d(64, eps=1e-05, momentum=0.1, affine=True, track_running_stats=False)
        (activation): LeakyReLU(negative_slope=0.01, inplace=True)
      )
    )
    (CB3d): CB3d(
      (conv1): CNA3d(
        (conv): Conv3d(144, 64, kernel_size=(3, 3, 3), stride=(1, 1, 1), padding=(1, 1, 1), bias=False)
        (norm): InstanceNorm3d(64, eps=1e-05, momentum=0.1, affine=True, track_running_stats=False)
        (activation): LeakyReLU(negative_slope=0.01, inplace=True)
      )
      (conv2): CNA3d(
        (conv): Conv3d(64, 64, kernel_size=(3, 3, 3), stride=(1, 1, 1), padding=(1, 1, 1), bias=False)
        (norm): InstanceNorm3d(64, eps=1e-05, momentum=0.1, affine=True, track_running_stats=False)
        (activation): LeakyReLU(negative_slope=0.01, inplace=True)
      )
    )
    (fuse): GatedFMU(
      (sg): SpatialGate(
        (conv): Conv3d(2, 1, kernel_size=(1, 1, 1), stride=(1, 1, 1))
      )
    )
    (fuse_skip): GatedFMU(
      (sg): SpatialGate(
        (conv): Conv3d(2, 1, kernel_size=(1, 1, 1), stride=(1, 1, 1))
      )
    )
    (fuse_up): GatedFMU(
      (sg): SpatialGate(
        (conv): Conv3d(2, 1, kernel_size=(1, 1, 1), stride=(1, 1, 1))
      )
    )
  )
  (up23): Up(
    (CB3d): CB3d(
      (conv1): CNA3d(
        (conv): Conv3d(112, 48, kernel_size=(3, 3, 3), stride=(1, 1, 1), padding=(1, 1, 1), bias=False)
        (norm): InstanceNorm3d(48, eps=1e-05, momentum=0.1, affine=True, track_running_stats=False)
        (activation): LeakyReLU(negative_slope=0.01, inplace=True)
      )
      (conv2): CNA3d(
        (conv): Conv3d(48, 48, kernel_size=(3, 3, 3), stride=(1, 1, 1), padding=(1, 1, 1), bias=False)
        (norm): InstanceNorm3d(48, eps=1e-05, momentum=0.1, affine=True, track_running_stats=False)
        (activation): LeakyReLU(negative_slope=0.01, inplace=True)
      )
    )
    (fuse): GatedFMU(
      (sg): SpatialGate(
        (conv): Conv3d(2, 1, kernel_size=(1, 1, 1), stride=(1, 1, 1))
      )
    )
    (fuse_skip): GatedFMU(
      (sg): SpatialGate(
        (conv): Conv3d(2, 1, kernel_size=(1, 1, 1), stride=(1, 1, 1))
      )
    )
    (fuse_up): GatedFMU(
      (sg): SpatialGate(
        (conv): Conv3d(2, 1, kernel_size=(1, 1, 1), stride=(1, 1, 1))
      )
    )
  )
  (down31): Down(
    (CB2d): CB3d(
      (conv1): CNA3d(
        (conv): Conv3d(48, 64, kernel_size=(1, 3, 3), stride=(1, 1, 1), padding=(0, 1, 1), bias=False)
        (norm): InstanceNorm3d(64, eps=1e-05, momentum=0.1, affine=True, track_running_stats=False)
        (activation): LeakyReLU(negative_slope=0.01, inplace=True)
      )
      (conv2): CNA3d(
        (conv): Conv3d(64, 64, kernel_size=(1, 3, 3), stride=(1, 1, 1), padding=(0, 1, 1), bias=False)
        (norm): InstanceNorm3d(64, eps=1e-05, momentum=0.1, affine=True, track_running_stats=False)
        (activation): LeakyReLU(negative_slope=0.01, inplace=True)
      )
    )
    (CB3d): CB3d(
      (conv1): CNA3d(
        (conv): Conv3d(48, 64, kernel_size=(3, 3, 3), stride=(1, 1, 1), padding=(1, 1, 1), bias=False)
        (norm): InstanceNorm3d(64, eps=1e-05, momentum=0.1, affine=True, track_running_stats=False)
        (activation): LeakyReLU(negative_slope=0.01, inplace=True)
      )
      (conv2): CNA3d(
        (conv): Conv3d(64, 64, kernel_size=(3, 3, 3), stride=(1, 1, 1), padding=(1, 1, 1), bias=False)
        (norm): InstanceNorm3d(64, eps=1e-05, momentum=0.1, affine=True, track_running_stats=False)
        (activation): LeakyReLU(negative_slope=0.01, inplace=True)
      )
    )
  )
  (down32): Down(
    (CB2d): CB3d(
      (conv1): CNA3d(
        (conv): Conv3d(64, 80, kernel_size=(1, 3, 3), stride=(1, 1, 1), padding=(0, 1, 1), bias=False)
        (norm): InstanceNorm3d(80, eps=1e-05, momentum=0.1, affine=True, track_running_stats=False)
        (activation): LeakyReLU(negative_slope=0.01, inplace=True)
      )
      (conv2): CNA3d(
        (conv): Conv3d(80, 80, kernel_size=(1, 3, 3), stride=(1, 1, 1), padding=(0, 1, 1), bias=False)
        (norm): InstanceNorm3d(80, eps=1e-05, momentum=0.1, affine=True, track_running_stats=False)
        (activation): LeakyReLU(negative_slope=0.01, inplace=True)
      )
    )
    (CB3d): CB3d(
      (conv1): CNA3d(
        (conv): Conv3d(64, 80, kernel_size=(3, 3, 3), stride=(1, 1, 1), padding=(1, 1, 1), bias=False)
        (norm): InstanceNorm3d(80, eps=1e-05, momentum=0.1, affine=True, track_running_stats=False)
        (activation): LeakyReLU(negative_slope=0.01, inplace=True)
      )
      (conv2): CNA3d(
        (conv): Conv3d(80, 80, kernel_size=(3, 3, 3), stride=(1, 1, 1), padding=(1, 1, 1), bias=False)
        (norm): InstanceNorm3d(80, eps=1e-05, momentum=0.1, affine=True, track_running_stats=False)
        (activation): LeakyReLU(negative_slope=0.01, inplace=True)
      )
    )
    (fuse): GatedFMU(
      (sg): SpatialGate(
        (conv): Conv3d(2, 1, kernel_size=(1, 1, 1), stride=(1, 1, 1))
      )
    )
  )
  (bottleneck3): Down(
    (CB2d): CB3d(
      (conv1): CNA3d(
        (conv): Conv3d(80, 96, kernel_size=(1, 3, 3), stride=(1, 1, 1), padding=(0, 1, 1), bias=False)
        (norm): InstanceNorm3d(96, eps=1e-05, momentum=0.1, affine=True, track_running_stats=False)
        (activation): LeakyReLU(negative_slope=0.01, inplace=True)
      )
      (conv2): CNA3d(
        (conv): Conv3d(96, 96, kernel_size=(1, 3, 3), stride=(1, 1, 1), padding=(0, 1, 1), bias=False)
        (norm): InstanceNorm3d(96, eps=1e-05, momentum=0.1, affine=True, track_running_stats=False)
        (activation): LeakyReLU(negative_slope=0.01, inplace=True)
      )
    )
    (CB3d): CB3d(
      (conv1): CNA3d(
        (conv): Conv3d(80, 96, kernel_size=(3, 3, 3), stride=(1, 1, 1), padding=(1, 1, 1), bias=False)
        (norm): InstanceNorm3d(96, eps=1e-05, momentum=0.1, affine=True, track_running_stats=False)
        (activation): LeakyReLU(negative_slope=0.01, inplace=True)
      )
      (conv2): CNA3d(
        (conv): Conv3d(96, 96, kernel_size=(3, 3, 3), stride=(1, 1, 1), padding=(1, 1, 1), bias=False)
        (norm): InstanceNorm3d(96, eps=1e-05, momentum=0.1, affine=True, track_running_stats=False)
        (activation): LeakyReLU(negative_slope=0.01, inplace=True)
      )
    )
    (fuse): GatedFMU(
      (sg): SpatialGate(
        (conv): Conv3d(2, 1, kernel_size=(1, 1, 1), stride=(1, 1, 1))
      )
    )
  )
  (up31): Up(
    (CB2d): CB3d(
      (conv1): CNA3d(
        (conv): Conv3d(176, 80, kernel_size=(1, 3, 3), stride=(1, 1, 1), padding=(0, 1, 1), bias=False)
        (norm): InstanceNorm3d(80, eps=1e-05, momentum=0.1, affine=True, track_running_stats=False)
        (activation): LeakyReLU(negative_slope=0.01, inplace=True)
      )
      (conv2): CNA3d(
        (conv): Conv3d(80, 80, kernel_size=(1, 3, 3), stride=(1, 1, 1), padding=(0, 1, 1), bias=False)
        (norm): InstanceNorm3d(80, eps=1e-05, momentum=0.1, affine=True, track_running_stats=False)
        (activation): LeakyReLU(negative_slope=0.01, inplace=True)
      )
    )
    (CB3d): CB3d(
      (conv1): CNA3d(
        (conv): Conv3d(176, 80, kernel_size=(3, 3, 3), stride=(1, 1, 1), padding=(1, 1, 1), bias=False)
        (norm): InstanceNorm3d(80, eps=1e-05, momentum=0.1, affine=True, track_running_stats=False)
        (activation): LeakyReLU(negative_slope=0.01, inplace=True)
      )
      (conv2): CNA3d(
        (conv): Conv3d(80, 80, kernel_size=(3, 3, 3), stride=(1, 1, 1), padding=(1, 1, 1), bias=False)
        (norm): InstanceNorm3d(80, eps=1e-05, momentum=0.1, affine=True, track_running_stats=False)
        (activation): LeakyReLU(negative_slope=0.01, inplace=True)
      )
    )
    (fuse): GatedFMU(
      (sg): SpatialGate(
        (conv): Conv3d(2, 1, kernel_size=(1, 1, 1), stride=(1, 1, 1))
      )
    )
    (fuse_skip): GatedFMU(
      (sg): SpatialGate(
        (conv): Conv3d(2, 1, kernel_size=(1, 1, 1), stride=(1, 1, 1))
      )
    )
    (fuse_up): GatedFMU(
      (sg): SpatialGate(
        (conv): Conv3d(2, 1, kernel_size=(1, 1, 1), stride=(1, 1, 1))
      )
    )
  )
  (up32): Up(
    (CB3d): CB3d(
      (conv1): CNA3d(
        (conv): Conv3d(144, 64, kernel_size=(3, 3, 3), stride=(1, 1, 1), padding=(1, 1, 1), bias=False)
        (norm): InstanceNorm3d(64, eps=1e-05, momentum=0.1, affine=True, track_running_stats=False)
        (activation): LeakyReLU(negative_slope=0.01, inplace=True)
      )
      (conv2): CNA3d(
        (conv): Conv3d(64, 64, kernel_size=(3, 3, 3), stride=(1, 1, 1), padding=(1, 1, 1), bias=False)
        (norm): InstanceNorm3d(64, eps=1e-05, momentum=0.1, affine=True, track_running_stats=False)
        (activation): LeakyReLU(negative_slope=0.01, inplace=True)
      )
    )
    (fuse): GatedFMU(
      (sg): SpatialGate(
        (conv): Conv3d(2, 1, kernel_size=(1, 1, 1), stride=(1, 1, 1))
      )
    )
    (fuse_skip): GatedFMU(
      (sg): SpatialGate(
        (conv): Conv3d(2, 1, kernel_size=(1, 1, 1), stride=(1, 1, 1))
      )
    )
    (fuse_up): GatedFMU(
      (sg): SpatialGate(
        (conv): Conv3d(2, 1, kernel_size=(1, 1, 1), stride=(1, 1, 1))
      )
    )
  )
  (down41): Down(
    (CB2d): CB3d(
      (conv1): CNA3d(
        (conv): Conv3d(64, 80, kernel_size=(1, 3, 3), stride=(1, 1, 1), padding=(0, 1, 1), bias=False)
        (norm): InstanceNorm3d(80, eps=1e-05, momentum=0.1, affine=True, track_running_stats=False)
        (activation): LeakyReLU(negative_slope=0.01, inplace=True)
      )
      (conv2): CNA3d(
        (conv): Conv3d(80, 80, kernel_size=(1, 3, 3), stride=(1, 1, 1), padding=(0, 1, 1), bias=False)
        (norm): InstanceNorm3d(80, eps=1e-05, momentum=0.1, affine=True, track_running_stats=False)
        (activation): LeakyReLU(negative_slope=0.01, inplace=True)
      )
    )
    (CB3d): CB3d(
      (conv1): CNA3d(
        (conv): Conv3d(64, 80, kernel_size=(3, 3, 3), stride=(1, 1, 1), padding=(1, 1, 1), bias=False)
        (norm): InstanceNorm3d(80, eps=1e-05, momentum=0.1, affine=True, track_running_stats=False)
        (activation): LeakyReLU(negative_slope=0.01, inplace=True)
      )
      (conv2): CNA3d(
        (conv): Conv3d(80, 80, kernel_size=(3, 3, 3), stride=(1, 1, 1), padding=(1, 1, 1), bias=False)
        (norm): InstanceNorm3d(80, eps=1e-05, momentum=0.1, affine=True, track_running_stats=False)
        (activation): LeakyReLU(negative_slope=0.01, inplace=True)
      )
    )
  )
  (bottleneck4): Down(
    (CB2d): CB3d(
      (conv1): CNA3d(
        (conv): Conv3d(80, 96, kernel_size=(1, 3, 3), stride=(1, 1, 1), padding=(0, 1, 1), bias=False)
        (norm): InstanceNorm3d(96, eps=1e-05, momentum=0.1, affine=True, track_running_stats=False)
        (activation): LeakyReLU(negative_slope=0.01, inplace=True)
      )
      (conv2): CNA3d(
        (conv): Conv3d(96, 96, kernel_size=(1, 3, 3), stride=(1, 1, 1), padding=(0, 1, 1), bias=False)
        (norm): InstanceNorm3d(96, eps=1e-05, momentum=0.1, affine=True, track_running_stats=False)
        (activation): LeakyReLU(negative_slope=0.01, inplace=True)
      )
    )
    (CB3d): CB3d(
      (conv1): CNA3d(
        (conv): Conv3d(80, 96, kernel_size=(3, 3, 3), stride=(1, 1, 1), padding=(1, 1, 1), bias=False)
        (norm): InstanceNorm3d(96, eps=1e-05, momentum=0.1, affine=True, track_running_stats=False)
        (activation): LeakyReLU(negative_slope=0.01, inplace=True)
      )
      (conv2): CNA3d(
        (conv): Conv3d(96, 96, kernel_size=(3, 3, 3), stride=(1, 1, 1), padding=(1, 1, 1), bias=False)
        (norm): InstanceNorm3d(96, eps=1e-05, momentum=0.1, affine=True, track_running_stats=False)
        (activation): LeakyReLU(negative_slope=0.01, inplace=True)
      )
    )
    (fuse): GatedFMU(
      (sg): SpatialGate(
        (conv): Conv3d(2, 1, kernel_size=(1, 1, 1), stride=(1, 1, 1))
      )
    )
  )
  (up41): Up(
    (CB3d): CB3d(
      (conv1): CNA3d(
        (conv): Conv3d(176, 80, kernel_size=(3, 3, 3), stride=(1, 1, 1), padding=(1, 1, 1), bias=False)
        (norm): InstanceNorm3d(80, eps=1e-05, momentum=0.1, affine=True, track_running_stats=False)
        (activation): LeakyReLU(negative_slope=0.01, inplace=True)
      )
      (conv2): CNA3d(
        (conv): Conv3d(80, 80, kernel_size=(3, 3, 3), stride=(1, 1, 1), padding=(1, 1, 1), bias=False)
        (norm): InstanceNorm3d(80, eps=1e-05, momentum=0.1, affine=True, track_running_stats=False)
        (activation): LeakyReLU(negative_slope=0.01, inplace=True)
      )
    )
    (fuse): GatedFMU(
      (sg): SpatialGate(
        (conv): Conv3d(2, 1, kernel_size=(1, 1, 1), stride=(1, 1, 1))
      )
    )
    (fuse_skip): GatedFMU(
      (sg): SpatialGate(
        (conv): Conv3d(2, 1, kernel_size=(1, 1, 1), stride=(1, 1, 1))
      )
    )
    (fuse_up): GatedFMU(
      (sg): SpatialGate(
        (conv): Conv3d(2, 1, kernel_size=(1, 1, 1), stride=(1, 1, 1))
      )
    )
  )
  (bottleneck5): Down(
    (CB3d): CB3d(
      (conv1): CNA3d(
        (conv): Conv3d(80, 96, kernel_size=(3, 3, 3), stride=(1, 1, 1), padding=(1, 1, 1), bias=False)
        (norm): InstanceNorm3d(96, eps=1e-05, momentum=0.1, affine=True, track_running_stats=False)
        (activation): LeakyReLU(negative_slope=0.01, inplace=True)
      )
      (conv2): CNA3d(
        (conv): Conv3d(96, 96, kernel_size=(3, 3, 3), stride=(1, 1, 1), padding=(1, 1, 1), bias=False)
        (norm): InstanceNorm3d(96, eps=1e-05, momentum=0.1, affine=True, track_running_stats=False)
        (activation): LeakyReLU(negative_slope=0.01, inplace=True)
      )
    )
  )
  (outputs): ModuleList(
    (0): Conv3d(32, 3, kernel_size=(1, 1, 1), stride=(1, 1, 1), bias=False)
    (1-2): 2 x Conv3d(48, 3, kernel_size=(1, 1, 1), stride=(1, 1, 1), bias=False)
    (3-4): 2 x Conv3d(64, 3, kernel_size=(1, 1, 1), stride=(1, 1, 1), bias=False)
    (5-6): 2 x Conv3d(80, 3, kernel_size=(1, 1, 1), stride=(1, 1, 1), bias=False)
  )
) 
2025-11-18 22:16:05.480158: 
 
2025-11-18 22:16:05.487925: 
epoch:  0 
2025-11-18 22:18:08.655988: train loss : 0.0673 
…
