Starting... 
2025-11-19 00:35:41.409184: Training config: max_epochs=1, gated_fusion=spatial 
2025-11-19 00:35:42.204154: Model params: total=8,909,968, trainable=8,909,968 
2025-11-19 00:36:23.258502: Unable to plot network architecture: 
2025-11-19 00:36:23.294111: No module named 'hiddenlayer' 
2025-11-19 00:36:23.305341: 
printing the network instead:
 
2025-11-19 00:36:23.308688: MNet(
  (down11): Down(
    (CB2d): CB3d(
      (conv1): CNA3d(
        (conv): Conv3d(1, 32, kernel_size=(1, 3, 3), stride=(1, 1, 1), padding=(0, 1, 1), bias=False)
        (norm): InstanceNorm3d(32, eps=1e-05, momentum=0.1, affine=True, track_running_stats=False)
        (activation): LeakyReLU(negative_slope=0.01, inplace=True)
      )
      (conv2): CNA3d(
        (conv): Conv3d(32, 32, kernel_size=(1, 3, 3), stride=(1, 1, 1), padding=(0, 1, 1), bias=False)
        (norm): InstanceNorm3d(32, eps=1e-05, momentum=0.1, affine=True, track_running_stats=False)
        (activation): LeakyReLU(negative_slope=0.01, inplace=True)
      )
    )
    (CB3d): CB3d(
      (conv1): CNA3d(
        (conv): Conv3d(1, 32, kernel_size=(3, 3, 3), stride=(1, 1, 1), padding=(1, 1, 1), bias=False)
        (norm): InstanceNorm3d(32, eps=1e-05, momentum=0.1, affine=True, track_running_stats=False)
        (activation): LeakyReLU(negative_slope=0.01, inplace=True)
      )
      (conv2): CNA3d(
        (conv): Conv3d(32, 32, kernel_size=(3, 3, 3), stride=(1, 1, 1), padding=(1, 1, 1), bias=False)
        (norm): InstanceNorm3d(32, eps=1e-05, momentum=0.1, affine=True, track_running_stats=False)
        (activation): LeakyReLU(negative_slope=0.01, inplace=True)
      )
    )
  )
  (down12): Down(
    (CB2d): CB3d(
      (conv1): CNA3d(
        (conv): Conv3d(32, 48, kernel_size=(1, 3, 3), stride=(1, 1, 1), padding=(0, 1, 1), bias=False)
        (norm): InstanceNorm3d(48, eps=1e-05, momentum=0.1, affine=True, track_running_stats=False)
        (activation): LeakyReLU(negative_slope=0.01, inplace=True)
      )
      (conv2): CNA3d(
        (conv): Conv3d(48, 48, kernel_size=(1, 3, 3), stride=(1, 1, 1), padding=(0, 1, 1), bias=False)
        (norm): InstanceNorm3d(48, eps=1e-05, momentum=0.1, affine=True, track_running_stats=False)
        (activation): LeakyReLU(negative_slope=0.01, inplace=True)
      )
    )
    (CB3d): CB3d(
      (conv1): CNA3d(
        (conv): Conv3d(32, 48, kernel_size=(3, 3, 3), stride=(1, 1, 1), padding=(1, 1, 1), bias=False)
        (norm): InstanceNorm3d(48, eps=1e-05, momentum=0.1, affine=True, track_running_stats=False)
        (activation): LeakyReLU(negative_slope=0.01, inplace=True)
      )
      (conv2): CNA3d(
        (conv): Conv3d(48, 48, kernel_size=(3, 3, 3), stride=(1, 1, 1), padding=(1, 1, 1), bias=False)
        (norm): InstanceNorm3d(48, eps=1e-05, momentum=0.1, affine=True, track_running_stats=False)
        (activation): LeakyReLU(negative_slope=0.01, inplace=True)
      )
    )
  )
  (down13): Down(
    (CB2d): CB3d(
      (conv1): CNA3d(
        (conv): Conv3d(48, 64, kernel_size=(1, 3, 3), stride=(1, 1, 1), padding=(0, 1, 1), bias=False)
        (norm): InstanceNorm3d(64, eps=1e-05, momentum=0.1, affine=True, track_running_stats=False)
        (activation): LeakyReLU(negative_slope=0.01, inplace=True)
      )
      (conv2): CNA3d(
        (conv): Conv3d(64, 64, kernel_size=(1, 3, 3), stride=(1, 1, 1), padding=(0, 1, 1), bias=False)
        (norm): InstanceNorm3d(64, eps=1e-05, momentum=0.1, affine=True, track_running_stats=False)
        (activation): LeakyReLU(negative_slope=0.01, inplace=True)
      )
    )
    (CB3d): CB3d(
      (conv1): CNA3d(
        (conv): Conv3d(48, 64, kernel_size=(3, 3, 3), stride=(1, 1, 1), padding=(1, 1, 1), bias=False)
        (norm): InstanceNorm3d(64, eps=1e-05, momentum=0.1, affine=True, track_running_stats=False)
        (activation): LeakyReLU(negative_slope=0.01, inplace=True)
      )
      (conv2): CNA3d(
        (conv): Conv3d(64, 64, kernel_size=(3, 3, 3), stride=(1, 1, 1), padding=(1, 1, 1), bias=False)
        (norm): InstanceNorm3d(64, eps=1e-05, momentum=0.1, affine=True, track_running_stats=False)
        (activation): LeakyReLU(negative_slope=0.01, inplace=True)
      )
    )
  )
  (down14): Down(
    (CB2d): CB3d(
      (conv1): CNA3d(
        (conv): Conv3d(64, 80, kernel_size=(1, 3, 3), stride=(1, 1, 1), padding=(0, 1, 1), bias=False)
        (norm): InstanceNorm3d(80, eps=1e-05, momentum=0.1, affine=True, track_running_stats=False)
        (activation): LeakyReLU(negative_slope=0.01, inplace=True)
      )
      (conv2): CNA3d(
        (conv): Conv3d(80, 80, kernel_size=(1, 3, 3), stride=(1, 1, 1), padding=(0, 1, 1), bias=False)
        (norm): InstanceNorm3d(80, eps=1e-05, momentum=0.1, affine=True, track_running_stats=False)
        (activation): LeakyReLU(negative_slope=0.01, inplace=True)
      )
    )
    (CB3d): CB3d(
      (conv1): CNA3d(
        (conv): Conv3d(64, 80, kernel_size=(3, 3, 3), stride=(1, 1, 1), padding=(1, 1, 1), bias=False)
        (norm): InstanceNorm3d(80, eps=1e-05, momentum=0.1, affine=True, track_running_stats=False)
        (activation): LeakyReLU(negative_slope=0.01, inplace=True)
      )
      (conv2): CNA3d(
        (conv): Conv3d(80, 80, kernel_size=(3, 3, 3), stride=(1, 1, 1), padding=(1, 1, 1), bias=False)
        (norm): InstanceNorm3d(80, eps=1e-05, momentum=0.1, affine=True, track_running_stats=False)
        (activation): LeakyReLU(negative_slope=0.01, inplace=True)
      )
    )
  )
  (bottleneck1): Down(
    (CB2d): CB3d(
      (conv1): CNA3d(
        (conv): Conv3d(80, 96, kernel_size=(1, 3, 3), stride=(1, 1, 1), padding=(0, 1, 1), bias=False)
        (norm): InstanceNorm3d(96, eps=1e-05, momentum=0.1, affine=True, track_running_stats=False)
        (activation): LeakyReLU(negative_slope=0.01, inplace=True)
      )
      (conv2): CNA3d(
        (conv): Conv3d(96, 96, kernel_size=(1, 3, 3), stride=(1, 1, 1), padding=(0, 1, 1), bias=False)
        (norm): InstanceNorm3d(96, eps=1e-05, momentum=0.1, affine=True, track_running_stats=False)
        (activation): LeakyReLU(negative_slope=0.01, inplace=True)
      )
    )
  )
  (up11): Up(
    (CB2d): CB3d(
      (conv1): CNA3d(
        (conv): Conv3d(176, 80, kernel_size=(1, 3, 3), stride=(1, 1, 1), padding=(0, 1, 1), bias=False)
        (norm): InstanceNorm3d(80, eps=1e-05, momentum=0.1, affine=True, track_running_stats=False)
        (activation): LeakyReLU(negative_slope=0.01, inplace=True)
      )
      (conv2): CNA3d(
        (conv): Conv3d(80, 80, kernel_size=(1, 3, 3), stride=(1, 1, 1), padding=(0, 1, 1), bias=False)
        (norm): InstanceNorm3d(80, eps=1e-05, momentum=0.1, affine=True, track_running_stats=False)
        (activation): LeakyReLU(negative_slope=0.01, inplace=True)
      )
    )
    (fuse): GatedFMU(
      (cg): ChannelGate(
        (fc1): Conv3d(160, 20, kernel_size=(1, 1, 1), stride=(1, 1, 1))
        (act): ReLU(inplace=True)
        (fc2): Conv3d(20, 80, kernel_size=(1, 1, 1), stride=(1, 1, 1))
      )
    )
    (fuse_skip): GatedFMU(
      (cg): ChannelGate(
        (fc1): Conv3d(160, 20, kernel_size=(1, 1, 1), stride=(1, 1, 1))
        (act): ReLU(inplace=True)
        (fc2): Conv3d(20, 80, kernel_size=(1, 1, 1), stride=(1, 1, 1))
      )
    )
    (fuse_up): GatedFMU(
      (cg): ChannelGate(
        (fc1): Conv3d(192, 24, kernel_size=(1, 1, 1), stride=(1, 1, 1))
        (act): ReLU(inplace=True)
        (fc2): Conv3d(24, 96, kernel_size=(1, 1, 1), stride=(1, 1, 1))
      )
    )
  )
  (up12): Up(
    (CB2d): CB3d(
      (conv1): CNA3d(
        (conv): Conv3d(144, 64, kernel_size=(1, 3, 3), stride=(1, 1, 1), padding=(0, 1, 1), bias=False)
        (norm): InstanceNorm3d(64, eps=1e-05, momentum=0.1, affine=True, track_running_stats=False)
        (activation): LeakyReLU(negative_slope=0.01, inplace=True)
      )
      (conv2): CNA3d(
        (conv): Conv3d(64, 64, kernel_size=(1, 3, 3), stride=(1, 1, 1), padding=(0, 1, 1), bias=False)
        (norm): InstanceNorm3d(64, eps=1e-05, momentum=0.1, affine=True, track_running_stats=False)
        (activation): LeakyReLU(negative_slope=0.01, inplace=True)
      )
    )
    (fuse): GatedFMU(
      (cg): ChannelGate(
        (fc1): Conv3d(128, 16, kernel_size=(1, 1, 1), stride=(1, 1, 1))
        (act): ReLU(inplace=True)
        (fc2): Conv3d(16, 64, kernel_size=(1, 1, 1), stride=(1, 1, 1))
      )
    )
    (fuse_skip): GatedFMU(
      (cg): ChannelGate(
        (fc1): Conv3d(128, 16, kernel_size=(1, 1, 1), stride=(1, 1, 1))
        (act): ReLU(inplace=True)
        (fc2): Conv3d(16, 64, kernel_size=(1, 1, 1), stride=(1, 1, 1))
      )
    )
    (fuse_up): GatedFMU(
      (cg): ChannelGate(
        (fc1): Conv3d(160, 20, kernel_size=(1, 1, 1), stride=(1, 1, 1))
        (act): ReLU(inplace=True)
        (fc2): Conv3d(20, 80, kernel_size=(1, 1, 1), stride=(1, 1, 1))
      )
    )
  )
  (up13): Up(
    (CB2d): CB3d(
      (conv1): CNA3d(
        (conv): Conv3d(112, 48, kernel_size=(1, 3, 3), stride=(1, 1, 1), padding=(0, 1, 1), bias=False)
        (norm): InstanceNorm3d(48, eps=1e-05, momentum=0.1, affine=True, track_running_stats=False)
        (activation): LeakyReLU(negative_slope=0.01, inplace=True)
      )
      (conv2): CNA3d(
        (conv): Conv3d(48, 48, kernel_size=(1, 3, 3), stride=(1, 1, 1), padding=(0, 1, 1), bias=False)
        (norm): InstanceNorm3d(48, eps=1e-05, momentum=0.1, affine=True, track_running_stats=False)
        (activation): LeakyReLU(negative_slope=0.01, inplace=True)
      )
    )
    (fuse): GatedFMU(
      (cg): ChannelGate(
        (fc1): Conv3d(96, 12, kernel_size=(1, 1, 1), stride=(1, 1, 1))
        (act): ReLU(inplace=True)
        (fc2): Conv3d(12, 48, kernel_size=(1, 1, 1), stride=(1, 1, 1))
      )
    )
    (fuse_skip): GatedFMU(
      (cg): ChannelGate(
        (fc1): Conv3d(96, 12, kernel_size=(1, 1, 1), stride=(1, 1, 1))
        (act): ReLU(inplace=True)
        (fc2): Conv3d(12, 48, kernel_size=(1, 1, 1), stride=(1, 1, 1))
      )
    )
    (fuse_up): GatedFMU(
      (cg): ChannelGate(
        (fc1): Conv3d(128, 16, kernel_size=(1, 1, 1), stride=(1, 1, 1))
        (act): ReLU(inplace=True)
        (fc2): Conv3d(16, 64, kernel_size=(1, 1, 1), stride=(1, 1, 1))
      )
    )
  )
  (up14): Up(
    (CB2d): CB3d(
      (conv1): CNA3d(
        (conv): Conv3d(80, 32, kernel_size=(1, 3, 3), stride=(1, 1, 1), padding=(0, 1, 1), bias=False)
        (norm): InstanceNorm3d(32, eps=1e-05, momentum=0.1, affine=True, track_running_stats=False)
        (activation): LeakyReLU(negative_slope=0.01, inplace=True)
      )
      (conv2): CNA3d(
        (conv): Conv3d(32, 32, kernel_size=(1, 3, 3), stride=(1, 1, 1), padding=(0, 1, 1), bias=False)
        (norm): InstanceNorm3d(32, eps=1e-05, momentum=0.1, affine=True, track_running_stats=False)
        (activation): LeakyReLU(negative_slope=0.01, inplace=True)
      )
    )
    (CB3d): CB3d(
      (conv1): CNA3d(
        (conv): Conv3d(80, 32, kernel_size=(3, 3, 3), stride=(1, 1, 1), padding=(1, 1, 1), bias=False)
        (norm): InstanceNorm3d(32, eps=1e-05, momentum=0.1, affine=True, track_running_stats=False)
        (activation): LeakyReLU(negative_slope=0.01, inplace=True)
      )
      (conv2): CNA3d(
        (conv): Conv3d(32, 32, kernel_size=(3, 3, 3), stride=(1, 1, 1), padding=(1, 1, 1), bias=False)
        (norm): InstanceNorm3d(32, eps=1e-05, momentum=0.1, affine=True, track_running_stats=False)
        (activation): LeakyReLU(negative_slope=0.01, inplace=True)
      )
    )
    (fuse): GatedFMU(
      (cg): ChannelGate(
        (fc1): Conv3d(64, 8, kernel_size=(1, 1, 1), stride=(1, 1, 1))
        (act): ReLU(inplace=True)
        (fc2): Conv3d(8, 32, kernel_size=(1, 1, 1), stride=(1, 1, 1))
      )
    )
    (fuse_skip): GatedFMU(
      (cg): ChannelGate(
        (fc1): Conv3d(64, 8, kernel_size=(1, 1, 1), stride=(1, 1, 1))
        (act): ReLU(inplace=True)
        (fc2): Conv3d(8, 32, kernel_size=(1, 1, 1), stride=(1, 1, 1))
      )
    )
    (fuse_up): GatedFMU(
      (cg): ChannelGate(
        (fc1): Conv3d(96, 12, kernel_size=(1, 1, 1), stride=(1, 1, 1))
        (act): ReLU(inplace=True)
        (fc2): Conv3d(12, 48, kernel_size=(1, 1, 1), stride=(1, 1, 1))
      )
    )
  )
  (down21): Down(
    (CB2d): CB3d(
      (conv1): CNA3d(
        (conv): Conv3d(32, 48, kernel_size=(1, 3, 3), stride=(1, 1, 1), padding=(0, 1, 1), bias=False)
        (norm): InstanceNorm3d(48, eps=1e-05, momentum=0.1, affine=True, track_running_stats=False)
        (activation): LeakyReLU(negative_slope=0.01, inplace=True)
      )
      (conv2): CNA3d(
        (conv): Conv3d(48, 48, kernel_size=(1, 3, 3), stride=(1, 1, 1), padding=(0, 1, 1), bias=False)
        (norm): InstanceNorm3d(48, eps=1e-05, momentum=0.1, affine=True, track_running_stats=False)
        (activation): LeakyReLU(negative_slope=0.01, inplace=True)
      )
    )
    (CB3d): CB3d(
      (conv1): CNA3d(
        (conv): Conv3d(32, 48, kernel_size=(3, 3, 3), stride=(1, 1, 1), padding=(1, 1, 1), bias=False)
        (norm): InstanceNorm3d(48, eps=1e-05, momentum=0.1, affine=True, track_running_stats=False)
        (activation): LeakyReLU(negative_slope=0.01, inplace=True)
      )
      (conv2): CNA3d(
        (conv): Conv3d(48, 48, kernel_size=(3, 3, 3), stride=(1, 1, 1), padding=(1, 1, 1), bias=False)
        (norm): InstanceNorm3d(48, eps=1e-05, momentum=0.1, affine=True, track_running_stats=False)
        (activation): LeakyReLU(negative_slope=0.01, inplace=True)
      )
    )
  )
  (down22): Down(
    (CB2d): CB3d(
      (conv1): CNA3d(
        (conv): Conv3d(48, 64, kernel_size=(1, 3, 3), stride=(1, 1, 1), padding=(0, 1, 1), bias=False)
        (norm): InstanceNorm3d(64, eps=1e-05, momentum=0.1, affine=True, track_running_stats=False)
        (activation): LeakyReLU(negative_slope=0.01, inplace=True)
      )
      (conv2): CNA3d(
        (conv): Conv3d(64, 64, kernel_size=(1, 3, 3), stride=(1, 1, 1), padding=(0, 1, 1), bias=False)
        (norm): InstanceNorm3d(64, eps=1e-05, momentum=0.1, affine=True, track_running_stats=False)
        (activation): LeakyReLU(negative_slope=0.01, inplace=True)
      )
    )
    (CB3d): CB3d(
      (conv1): CNA3d(
        (conv): Conv3d(48, 64, kernel_size=(3, 3, 3), stride=(1, 1, 1), padding=(1, 1, 1), bias=False)
        (norm): InstanceNorm3d(64, eps=1e-05, momentum=0.1, affine=True, track_running_stats=False)
        (activation): LeakyReLU(negative_slope=0.01, inplace=True)
      )
      (conv2): CNA3d(
        (conv): Conv3d(64, 64, kernel_size=(3, 3, 3), stride=(1, 1, 1), padding=(1, 1, 1), bias=False)
        (norm): InstanceNorm3d(64, eps=1e-05, momentum=0.1, affine=True, track_running_stats=False)
        (activation): LeakyReLU(negative_slope=0.01, inplace=True)
      )
    )
    (fuse): GatedFMU(
      (cg): ChannelGate(
        (fc1): Conv3d(96, 12, kernel_size=(1, 1, 1), stride=(1, 1, 1))
        (act): ReLU(inplace=True)
        (fc2): Conv3d(12, 48, kernel_size=(1, 1, 1), stride=(1, 1, 1))
      )
    )
  )
  (down23): Down(
    (CB2d): CB3d(
      (conv1): CNA3d(
        (conv): Conv3d(64, 80, kernel_size=(1, 3, 3), stride=(1, 1, 1), padding=(0, 1, 1), bias=False)
        (norm): InstanceNorm3d(80, eps=1e-05, momentum=0.1, affine=True, track_running_stats=False)
        (activation): LeakyReLU(negative_slope=0.01, inplace=True)
      )
      (conv2): CNA3d(
        (conv): Conv3d(80, 80, kernel_size=(1, 3, 3), stride=(1, 1, 1), padding=(0, 1, 1), bias=False)
        (norm): InstanceNorm3d(80, eps=1e-05, momentum=0.1, affine=True, track_running_stats=False)
        (activation): LeakyReLU(negative_slope=0.01, inplace=True)
      )
    )
    (CB3d): CB3d(
      (conv1): CNA3d(
        (conv): Conv3d(64, 80, kernel_size=(3, 3, 3), stride=(1, 1, 1), padding=(1, 1, 1), bias=False)
        (norm): InstanceNorm3d(80, eps=1e-05, momentum=0.1, affine=True, track_running_stats=False)
        (activation): LeakyReLU(negative_slope=0.01, inplace=True)
      )
      (conv2): CNA3d(
        (conv): Conv3d(80, 80, kernel_size=(3, 3, 3), stride=(1, 1, 1), padding=(1, 1, 1), bias=False)
        (norm): InstanceNorm3d(80, eps=1e-05, momentum=0.1, affine=True, track_running_stats=False)
        (activation): LeakyReLU(negative_slope=0.01, inplace=True)
      )
    )
    (fuse): GatedFMU(
      (cg): ChannelGate(
        (fc1): Conv3d(128, 16, kernel_size=(1, 1, 1), stride=(1, 1, 1))
        (act): ReLU(inplace=True)
        (fc2): Conv3d(16, 64, kernel_size=(1, 1, 1), stride=(1, 1, 1))
      )
    )
  )
  (bottleneck2): Down(
    (CB2d): CB3d(
      (conv1): CNA3d(
        (conv): Conv3d(80, 96, kernel_size=(1, 3, 3), stride=(1, 1, 1), padding=(0, 1, 1), bias=False)
        (norm): InstanceNorm3d(96, eps=1e-05, momentum=0.1, affine=True, track_running_stats=False)
        (activation): LeakyReLU(negative_slope=0.01, inplace=True)
      )
      (conv2): CNA3d(
        (conv): Conv3d(96, 96, kernel_size=(1, 3, 3), stride=(1, 1, 1), padding=(0, 1, 1), bias=False)
        (norm): InstanceNorm3d(96, eps=1e-05, momentum=0.1, affine=True, track_running_stats=False)
        (activation): LeakyReLU(negative_slope=0.01, inplace=True)
      )
    )
    (CB3d): CB3d(
      (conv1): CNA3d(
        (conv): Conv3d(80, 96, kernel_size=(3, 3, 3), stride=(1, 1, 1), padding=(1, 1, 1), bias=False)
        (norm): InstanceNorm3d(96, eps=1e-05, momentum=0.1, affine=True, track_running_stats=False)
        (activation): LeakyReLU(negative_slope=0.01, inplace=True)
      )
      (conv2): CNA3d(
        (conv): Conv3d(96, 96, kernel_size=(3, 3, 3), stride=(1, 1, 1), padding=(1, 1, 1), bias=False)
        (norm): InstanceNorm3d(96, eps=1e-05, momentum=0.1, affine=True, track_running_stats=False)
        (activation): LeakyReLU(negative_slope=0.01, inplace=True)
      )
    )
    (fuse): GatedFMU(
      (cg): ChannelGate(
        (fc1): Conv3d(160, 20, kernel_size=(1, 1, 1), stride=(1, 1, 1))
        (act): ReLU(inplace=True)
        (fc2): Conv3d(20, 80, kernel_size=(1, 1, 1), stride=(1, 1, 1))
      )
    )
  )
  (up21): Up(
    (CB2d): CB3d(
      (conv1): CNA3d(
        (conv): Conv3d(176, 80, kernel_size=(1, 3, 3), stride=(1, 1, 1), padding=(0, 1, 1), bias=False)
        (norm): InstanceNorm3d(80, eps=1e-05, momentum=0.1, affine=True, track_running_stats=False)
        (activation): LeakyReLU(negative_slope=0.01, inplace=True)
      )
      (conv2): CNA3d(
        (conv): Conv3d(80, 80, kernel_size=(1, 3, 3), stride=(1, 1, 1), padding=(0, 1, 1), bias=False)
        (norm): InstanceNorm3d(80, eps=1e-05, momentum=0.1, affine=True, track_running_stats=False)
        (activation): LeakyReLU(negative_slope=0.01, inplace=True)
      )
    )
    (CB3d): CB3d(
      (conv1): CNA3d(
        (conv): Conv3d(176, 80, kernel_size=(3, 3, 3), stride=(1, 1, 1), padding=(1, 1, 1), bias=False)
        (norm): InstanceNorm3d(80, eps=1e-05, momentum=0.1, affine=True, track_running_stats=False)
        (activation): LeakyReLU(negative_slope=0.01, inplace=True)
      )
      (conv2): CNA3d(
        (conv): Conv3d(80, 80, kernel_size=(3, 3, 3), stride=(1, 1, 1), padding=(1, 1, 1), bias=False)
        (norm): InstanceNorm3d(80, eps=1e-05, momentum=0.1, affine=True, track_running_stats=False)
        (activation): LeakyReLU(negative_slope=0.01, inplace=True)
      )
    )
    (fuse): GatedFMU(
      (cg): ChannelGate(
        (fc1): Conv3d(160, 20, kernel_size=(1, 1, 1), stride=(1, 1, 1))
        (act): ReLU(inplace=True)
        (fc2): Conv3d(20, 80, kernel_size=(1, 1, 1), stride=(1, 1, 1))
      )
    )
    (fuse_skip): GatedFMU(
      (cg): ChannelGate(
        (fc1): Conv3d(160, 20, kernel_size=(1, 1, 1), stride=(1, 1, 1))
        (act): ReLU(inplace=True)
        (fc2): Conv3d(20, 80, kernel_size=(1, 1, 1), stride=(1, 1, 1))
      )
    )
    (fuse_up): GatedFMU(
      (cg): ChannelGate(
        (fc1): Conv3d(192, 24, kernel_size=(1, 1, 1), stride=(1, 1, 1))
        (act): ReLU(inplace=True)
        (fc2): Conv3d(24, 96, kernel_size=(1, 1, 1), stride=(1, 1, 1))
      )
    )
  )
  (up22): Up(
    (CB2d): CB3d(
      (conv1): CNA3d(
        (conv): Conv3d(144, 64, kernel_size=(1, 3, 3), stride=(1, 1, 1), padding=(0, 1, 1), bias=False)
        (norm): InstanceNorm3d(64, eps=1e-05, momentum=0.1, affine=True, track_running_stats=False)
        (activation): LeakyReLU(negative_slope=0.01, inplace=True)
      )
      (conv2): CNA3d(
        (conv): Conv3d(64, 64, kernel_size=(1, 3, 3), stride=(1, 1, 1), padding=(0, 1, 1), bias=False)
        (norm): InstanceNorm3d(64, eps=1e-05, momentum=0.1, affine=True, track_running_stats=False)
        (activation): LeakyReLU(negative_slope=0.01, inplace=True)
      )
    )
    (CB3d): CB3d(
      (conv1): CNA3d(
        (conv): Conv3d(144, 64, kernel_size=(3, 3, 3), stride=(1, 1, 1), padding=(1, 1, 1), bias=False)
        (norm): InstanceNorm3d(64, eps=1e-05, momentum=0.1, affine=True, track_running_stats=False)
        (activation): LeakyReLU(negative_slope=0.01, inplace=True)
      )
      (conv2): CNA3d(
        (conv): Conv3d(64, 64, kernel_size=(3, 3, 3), stride=(1, 1, 1), padding=(1, 1, 1), bias=False)
        (norm): InstanceNorm3d(64, eps=1e-05, momentum=0.1, affine=True, track_running_stats=False)
        (activation): LeakyReLU(negative_slope=0.01, inplace=True)
      )
    )
    (fuse): GatedFMU(
      (cg): ChannelGate(
        (fc1): Conv3d(128, 16, kernel_size=(1, 1, 1), stride=(1, 1, 1))
        (act): ReLU(inplace=True)
        (fc2): Conv3d(16, 64, kernel_size=(1, 1, 1), stride=(1, 1, 1))
      )
    )
    (fuse_skip): GatedFMU(
      (cg): ChannelGate(
        (fc1): Conv3d(128, 16, kernel_size=(1, 1, 1), stride=(1, 1, 1))
        (act): ReLU(inplace=True)
        (fc2): Conv3d(16, 64, kernel_size=(1, 1, 1), stride=(1, 1, 1))
      )
    )
    (fuse_up): GatedFMU(
      (cg): ChannelGate(
        (fc1): Conv3d(160, 20, kernel_size=(1, 1, 1), stride=(1, 1, 1))
        (act): ReLU(inplace=True)
        (fc2): Conv3d(20, 80, kernel_size=(1, 1, 1), stride=(1, 1, 1))
      )
    )
  )
  (up23): Up(
    (CB3d): CB3d(
      (conv1): CNA3d(
        (conv): Conv3d(112, 48, kernel_size=(3, 3, 3), stride=(1, 1, 1), padding=(1, 1, 1), bias=False)
        (norm): InstanceNorm3d(48, eps=1e-05, momentum=0.1, affine=True, track_running_stats=False)
        (activation): LeakyReLU(negative_slope=0.01, inplace=True)
      )
      (conv2): CNA3d(
        (conv): Conv3d(48, 48, kernel_size=(3, 3, 3), stride=(1, 1, 1), padding=(1, 1, 1), bias=False)
        (norm): InstanceNorm3d(48, eps=1e-05, momentum=0.1, affine=True, track_running_stats=False)
        (activation): LeakyReLU(negative_slope=0.01, inplace=True)
      )
    )
    (fuse): GatedFMU(
      (cg): ChannelGate(
        (fc1): Conv3d(96, 12, kernel_size=(1, 1, 1), stride=(1, 1, 1))
        (act): ReLU(inplace=True)
        (fc2): Conv3d(12, 48, kernel_size=(1, 1, 1), stride=(1, 1, 1))
      )
    )
    (fuse_skip): GatedFMU(
      (cg): ChannelGate(
        (fc1): Conv3d(96, 12, kernel_size=(1, 1, 1), stride=(1, 1, 1))
        (act): ReLU(inplace=True)
        (fc2): Conv3d(12, 48, kernel_size=(1, 1, 1), stride=(1, 1, 1))
      )
    )
    (fuse_up): GatedFMU(
      (cg): ChannelGate(
        (fc1): Conv3d(128, 16, kernel_size=(1, 1, 1), stride=(1, 1, 1))
        (act): ReLU(inplace=True)
        (fc2): Conv3d(16, 64, kernel_size=(1, 1, 1), stride=(1, 1, 1))
      )
    )
  )
  (down31): Down(
    (CB2d): CB3d(
      (conv1): CNA3d(
        (conv): Conv3d(48, 64, kernel_size=(1, 3, 3), stride=(1, 1, 1), padding=(0, 1, 1), bias=False)
        (norm): InstanceNorm3d(64, eps=1e-05, momentum=0.1, affine=True, track_running_stats=False)
        (activation): LeakyReLU(negative_slope=0.01, inplace=True)
      )
      (conv2): CNA3d(
        (conv): Conv3d(64, 64, kernel_size=(1, 3, 3), stride=(1, 1, 1), padding=(0, 1, 1), bias=False)
        (norm): InstanceNorm3d(64, eps=1e-05, momentum=0.1, affine=True, track_running_stats=False)
        (activation): LeakyReLU(negative_slope=0.01, inplace=True)
      )
    )
    (CB3d): CB3d(
      (conv1): CNA3d(
        (conv): Conv3d(48, 64, kernel_size=(3, 3, 3), stride=(1, 1, 1), padding=(1, 1, 1), bias=False)
        (norm): InstanceNorm3d(64, eps=1e-05, momentum=0.1, affine=True, track_running_stats=False)
        (activation): LeakyReLU(negative_slope=0.01, inplace=True)
      )
      (conv2): CNA3d(
        (conv): Conv3d(64, 64, kernel_size=(3, 3, 3), stride=(1, 1, 1), padding=(1, 1, 1), bias=False)
        (norm): InstanceNorm3d(64, eps=1e-05, momentum=0.1, affine=True, track_running_stats=False)
        (activation): LeakyReLU(negative_slope=0.01, inplace=True)
      )
    )
  )
  (down32): Down(
    (CB2d): CB3d(
      (conv1): CNA3d(
        (conv): Conv3d(64, 80, kernel_size=(1, 3, 3), stride=(1, 1, 1), padding=(0, 1, 1), bias=False)
        (norm): InstanceNorm3d(80, eps=1e-05, momentum=0.1, affine=True, track_running_stats=False)
        (activation): LeakyReLU(negative_slope=0.01, inplace=True)
      )
      (conv2): CNA3d(
        (conv): Conv3d(80, 80, kernel_size=(1, 3, 3), stride=(1, 1, 1), padding=(0, 1, 1), bias=False)
        (norm): InstanceNorm3d(80, eps=1e-05, momentum=0.1, affine=True, track_running_stats=False)
        (activation): LeakyReLU(negative_slope=0.01, inplace=True)
      )
    )
    (CB3d): CB3d(
      (conv1): CNA3d(
        (conv): Conv3d(64, 80, kernel_size=(3, 3, 3), stride=(1, 1, 1), padding=(1, 1, 1), bias=False)
        (norm): InstanceNorm3d(80, eps=1e-05, momentum=0.1, affine=True, track_running_stats=False)
        (activation): LeakyReLU(negative_slope=0.01, inplace=True)
      )
      (conv2): CNA3d(
        (conv): Conv3d(80, 80, kernel_size=(3, 3, 3), stride=(1, 1, 1), padding=(1, 1, 1), bias=False)
        (norm): InstanceNorm3d(80, eps=1e-05, momentum=0.1, affine=True, track_running_stats=False)
        (activation): LeakyReLU(negative_slope=0.01, inplace=True)
      )
    )
    (fuse): GatedFMU(
      (cg): ChannelGate(
        (fc1): Conv3d(128, 16, kernel_size=(1, 1, 1), stride=(1, 1, 1))
        (act): ReLU(inplace=True)
        (fc2): Conv3d(16, 64, kernel_size=(1, 1, 1), stride=(1, 1, 1))
      )
    )
  )
  (bottleneck3): Down(
    (CB2d): CB3d(
      (conv1): CNA3d(
        (conv): Conv3d(80, 96, kernel_size=(1, 3, 3), stride=(1, 1, 1), padding=(0, 1, 1), bias=False)
        (norm): InstanceNorm3d(96, eps=1e-05, momentum=0.1, affine=True, track_running_stats=False)
        (activation): LeakyReLU(negative_slope=0.01, inplace=True)
      )
      (conv2): CNA3d(
        (conv): Conv3d(96, 96, kernel_size=(1, 3, 3), stride=(1, 1, 1), padding=(0, 1, 1), bias=False)
        (norm): InstanceNorm3d(96, eps=1e-05, momentum=0.1, affine=True, track_running_stats=False)
        (activation): LeakyReLU(negative_slope=0.01, inplace=True)
      )
    )
    (CB3d): CB3d(
      (conv1): CNA3d(
        (conv): Conv3d(80, 96, kernel_size=(3, 3, 3), stride=(1, 1, 1), padding=(1, 1, 1), bias=False)
        (norm): InstanceNorm3d(96, eps=1e-05, momentum=0.1, affine=True, track_running_stats=False)
        (activation): LeakyReLU(negative_slope=0.01, inplace=True)
      )
      (conv2): CNA3d(
        (conv): Conv3d(96, 96, kernel_size=(3, 3, 3), stride=(1, 1, 1), padding=(1, 1, 1), bias=False)
        (norm): InstanceNorm3d(96, eps=1e-05, momentum=0.1, affine=True, track_running_stats=False)
        (activation): LeakyReLU(negative_slope=0.01, inplace=True)
      )
    )
    (fuse): GatedFMU(
      (cg): ChannelGate(
        (fc1): Conv3d(160, 20, kernel_size=(1, 1, 1), stride=(1, 1, 1))
        (act): ReLU(inplace=True)
        (fc2): Conv3d(20, 80, kernel_size=(1, 1, 1), stride=(1, 1, 1))
      )
    )
  )
  (up31): Up(
    (CB2d): CB3d(
      (conv1): CNA3d(
        (conv): Conv3d(176, 80, kernel_size=(1, 3, 3), stride=(1, 1, 1), padding=(0, 1, 1), bias=False)
        (norm): InstanceNorm3d(80, eps=1e-05, momentum=0.1, affine=True, track_running_stats=False)
        (activation): LeakyReLU(negative_slope=0.01, inplace=True)
      )
      (conv2): CNA3d(
        (conv): Conv3d(80, 80, kernel_size=(1, 3, 3), stride=(1, 1, 1), padding=(0, 1, 1), bias=False)
        (norm): InstanceNorm3d(80, eps=1e-05, momentum=0.1, affine=True, track_running_stats=False)
        (activation): LeakyReLU(negative_slope=0.01, inplace=True)
      )
    )
    (CB3d): CB3d(
      (conv1): CNA3d(
        (conv): Conv3d(176, 80, kernel_size=(3, 3, 3), stride=(1, 1, 1), padding=(1, 1, 1), bias=False)
        (norm): InstanceNorm3d(80, eps=1e-05, momentum=0.1, affine=True, track_running_stats=False)
        (activation): LeakyReLU(negative_slope=0.01, inplace=True)
      )
      (conv2): CNA3d(
        (conv): Conv3d(80, 80, kernel_size=(3, 3, 3), stride=(1, 1, 1), padding=(1, 1, 1), bias=False)
        (norm): InstanceNorm3d(80, eps=1e-05, momentum=0.1, affine=True, track_running_stats=False)
        (activation): LeakyReLU(negative_slope=0.01, inplace=True)
      )
    )
    (fuse): GatedFMU(
      (cg): ChannelGate(
        (fc1): Conv3d(160, 20, kernel_size=(1, 1, 1), stride=(1, 1, 1))
        (act): ReLU(inplace=True)
        (fc2): Conv3d(20, 80, kernel_size=(1, 1, 1), stride=(1, 1, 1))
      )
    )
    (fuse_skip): GatedFMU(
      (cg): ChannelGate(
        (fc1): Conv3d(160, 20, kernel_size=(1, 1, 1), stride=(1, 1, 1))
        (act): ReLU(inplace=True)
        (fc2): Conv3d(20, 80, kernel_size=(1, 1, 1), stride=(1, 1, 1))
      )
    )
    (fuse_up): GatedFMU(
      (cg): ChannelGate(
        (fc1): Conv3d(192, 24, kernel_size=(1, 1, 1), stride=(1, 1, 1))
        (act): ReLU(inplace=True)
        (fc2): Conv3d(24, 96, kernel_size=(1, 1, 1), stride=(1, 1, 1))
      )
    )
  )
  (up32): Up(
    (CB3d): CB3d(
      (conv1): CNA3d(
        (conv): Conv3d(144, 64, kernel_size=(3, 3, 3), stride=(1, 1, 1), padding=(1, 1, 1), bias=False)
        (norm): InstanceNorm3d(64, eps=1e-05, momentum=0.1, affine=True, track_running_stats=False)
        (activation): LeakyReLU(negative_slope=0.01, inplace=True)
      )
      (conv2): CNA3d(
        (conv): Conv3d(64, 64, kernel_size=(3, 3, 3), stride=(1, 1, 1), padding=(1, 1, 1), bias=False)
        (norm): InstanceNorm3d(64, eps=1e-05, momentum=0.1, affine=True, track_running_stats=False)
        (activation): LeakyReLU(negative_slope=0.01, inplace=True)
      )
    )
    (fuse): GatedFMU(
      (cg): ChannelGate(
        (fc1): Conv3d(128, 16, kernel_size=(1, 1, 1), stride=(1, 1, 1))
        (act): ReLU(inplace=True)
        (fc2): Conv3d(16, 64, kernel_size=(1, 1, 1), stride=(1, 1, 1))
      )
    )
    (fuse_skip): GatedFMU(
      (cg): ChannelGate(
        (fc1): Conv3d(128, 16, kernel_size=(1, 1, 1), stride=(1, 1, 1))
        (act): ReLU(inplace=True)
        (fc2): Conv3d(16, 64, kernel_size=(1, 1, 1), stride=(1, 1, 1))
      )
    )
    (fuse_up): GatedFMU(
      (cg): ChannelGate(
        (fc1): Conv3d(160, 20, kernel_size=(1, 1, 1), stride=(1, 1, 1))
        (act): ReLU(inplace=True)
        (fc2): Conv3d(20, 80, kernel_size=(1, 1, 1), stride=(1, 1, 1))
      )
    )
  )
  (down41): Down(
    (CB2d): CB3d(
      (conv1): CNA3d(
        (conv): Conv3d(64, 80, kernel_size=(1, 3, 3), stride=(1, 1, 1), padding=(0, 1, 1), bias=False)
        (norm): InstanceNorm3d(80, eps=1e-05, momentum=0.1, affine=True, track_running_stats=False)
        (activation): LeakyReLU(negative_slope=0.01, inplace=True)
      )
      (conv2): CNA3d(
        (conv): Conv3d(80, 80, kernel_size=(1, 3, 3), stride=(1, 1, 1), padding=(0, 1, 1), bias=False)
        (norm): InstanceNorm3d(80, eps=1e-05, momentum=0.1, affine=True, track_running_stats=False)
        (activation): LeakyReLU(negative_slope=0.01, inplace=True)
      )
    )
    (CB3d): CB3d(
      (conv1): CNA3d(
        (conv): Conv3d(64, 80, kernel_size=(3, 3, 3), stride=(1, 1, 1), padding=(1, 1, 1), bias=False)
        (norm): InstanceNorm3d(80, eps=1e-05, momentum=0.1, affine=True, track_running_stats=False)
        (activation): LeakyReLU(negative_slope=0.01, inplace=True)
      )
      (conv2): CNA3d(
        (conv): Conv3d(80, 80, kernel_size=(3, 3, 3), stride=(1, 1, 1), padding=(1, 1, 1), bias=False)
        (norm): InstanceNorm3d(80, eps=1e-05, momentum=0.1, affine=True, track_running_stats=False)
        (activation): LeakyReLU(negative_slope=0.01, inplace=True)
      )
    )
  )
  (bottleneck4): Down(
    (CB2d): CB3d(
      (conv1): CNA3d(
        (conv): Conv3d(80, 96, kernel_size=(1, 3, 3), stride=(1, 1, 1), padding=(0, 1, 1), bias=False)
        (norm): InstanceNorm3d(96, eps=1e-05, momentum=0.1, affine=True, track_running_stats=False)
        (activation): LeakyReLU(negative_slope=0.01, inplace=True)
      )
      (conv2): CNA3d(
        (conv): Conv3d(96, 96, kernel_size=(1, 3, 3), stride=(1, 1, 1), padding=(0, 1, 1), bias=False)
        (norm): InstanceNorm3d(96, eps=1e-05, momentum=0.1, affine=True, track_running_stats=False)
        (activation): LeakyReLU(negative_slope=0.01, inplace=True)
      )
    )
    (CB3d): CB3d(
      (conv1): CNA3d(
        (conv): Conv3d(80, 96, kernel_size=(3, 3, 3), stride=(1, 1, 1), padding=(1, 1, 1), bias=False)
        (norm): InstanceNorm3d(96, eps=1e-05, momentum=0.1, affine=True, track_running_stats=False)
        (activation): LeakyReLU(negative_slope=0.01, inplace=True)
      )
      (conv2): CNA3d(
        (conv): Conv3d(96, 96, kernel_size=(3, 3, 3), stride=(1, 1, 1), padding=(1, 1, 1), bias=False)
        (norm): InstanceNorm3d(96, eps=1e-05, momentum=0.1, affine=True, track_running_stats=False)
        (activation): LeakyReLU(negative_slope=0.01, inplace=True)
      )
    )
    (fuse): GatedFMU(
      (cg): ChannelGate(
        (fc1): Conv3d(160, 20, kernel_size=(1, 1, 1), stride=(1, 1, 1))
        (act): ReLU(inplace=True)
        (fc2): Conv3d(20, 80, kernel_size=(1, 1, 1), stride=(1, 1, 1))
      )
    )
  )
  (up41): Up(
    (CB3d): CB3d(
      (conv1): CNA3d(
        (conv): Conv3d(176, 80, kernel_size=(3, 3, 3), stride=(1, 1, 1), padding=(1, 1, 1), bias=False)
        (norm): InstanceNorm3d(80, eps=1e-05, momentum=0.1, affine=True, track_running_stats=False)
        (activation): LeakyReLU(negative_slope=0.01, inplace=True)
      )
      (conv2): CNA3d(
        (conv): Conv3d(80, 80, kernel_size=(3, 3, 3), stride=(1, 1, 1), padding=(1, 1, 1), bias=False)
        (norm): InstanceNorm3d(80, eps=1e-05, momentum=0.1, affine=True, track_running_stats=False)
        (activation): LeakyReLU(negative_slope=0.01, inplace=True)
      )
    )
    (fuse): GatedFMU(
      (cg): ChannelGate(
        (fc1): Conv3d(160, 20, kernel_size=(1, 1, 1), stride=(1, 1, 1))
        (act): ReLU(inplace=True)
        (fc2): Conv3d(20, 80, kernel_size=(1, 1, 1), stride=(1, 1, 1))
      )
    )
    (fuse_skip): GatedFMU(
      (cg): ChannelGate(
        (fc1): Conv3d(160, 20, kernel_size=(1, 1, 1), stride=(1, 1, 1))
        (act): ReLU(inplace=True)
        (fc2): Conv3d(20, 80, kernel_size=(1, 1, 1), stride=(1, 1, 1))
      )
    )
    (fuse_up): GatedFMU(
      (cg): ChannelGate(
        (fc1): Conv3d(192, 24, kernel_size=(1, 1, 1), stride=(1, 1, 1))
        (act): ReLU(inplace=True)
        (fc2): Conv3d(24, 96, kernel_size=(1, 1, 1), stride=(1, 1, 1))
      )
    )
  )
  (bottleneck5): Down(
    (CB3d): CB3d(
      (conv1): CNA3d(
        (conv): Conv3d(80, 96, kernel_size=(3, 3, 3), stride=(1, 1, 1), padding=(1, 1, 1), bias=False)
        (norm): InstanceNorm3d(96, eps=1e-05, momentum=0.1, affine=True, track_running_stats=False)
        (activation): LeakyReLU(negative_slope=0.01, inplace=True)
      )
      (conv2): CNA3d(
        (conv): Conv3d(96, 96, kernel_size=(3, 3, 3), stride=(1, 1, 1), padding=(1, 1, 1), bias=False)
        (norm): InstanceNorm3d(96, eps=1e-05, momentum=0.1, affine=True, track_running_stats=False)
        (activation): LeakyReLU(negative_slope=0.01, inplace=True)
      )
    )
  )
  (outputs): ModuleList(
    (0): Conv3d(32, 3, kernel_size=(1, 1, 1), stride=(1, 1, 1), bias=False)
    (1-2): 2 x Conv3d(48, 3, kernel_size=(1, 1, 1), stride=(1, 1, 1), bias=False)
    (3-4): 2 x Conv3d(64, 3, kernel_size=(1, 1, 1), stride=(1, 1, 1), bias=False)
    (5-6): 2 x Conv3d(80, 3, kernel_size=(1, 1, 1), stride=(1, 1, 1), bias=False)
  )
) 
2025-11-19 00:36:23.449083: 
 
2025-11-19 00:36:23.458942: 
epoch:  0 
2025-11-19 00:41:56.121695: train loss : 0.0492 
…
