Starting... 
2025-11-16 01:26:36.915711: Training config: max_epochs=1, gated_fusion=spatial 
2025-11-16 01:26:37.426184: Model params: total=7,468,783, trainable=7,468,783 
2025-11-16 01:26:38.590925: [WARN] Parameter count decreased -14.83% vs baseline (8.769M). 
2025-11-16 01:26:41.645198: Unable to plot network architecture: 
2025-11-16 01:26:41.655463: No module named 'hiddenlayer' 
2025-11-16 01:26:41.662948: 
printing the network instead:
 
2025-11-16 01:26:41.671675: MNet(
  (down11): Down(
    (CB2d): CB3d(
      (conv1): CNA3d(
        (conv): Conv3d(1, 32, kernel_size=(1, 3, 3), stride=(1, 1, 1), padding=(0, 1, 1), bias=False)
        (norm): InstanceNorm3d(32, eps=1e-05, momentum=0.1, affine=True, track_running_stats=False)
        (activation): LeakyReLU(negative_slope=0.01, inplace=True)
      )
      (conv2): CNA3d(
        (conv): Conv3d(32, 32, kernel_size=(1, 3, 3), stride=(1, 1, 1), padding=(0, 1, 1), bias=False)
        (norm): InstanceNorm3d(32, eps=1e-05, momentum=0.1, affine=True, track_running_stats=False)
        (activation): LeakyReLU(negative_slope=0.01, inplace=True)
      )
    )
    (CB3d): CB3d(
      (conv1): CNA3d(
        (conv): Conv3d(1, 32, kernel_size=(3, 3, 3), stride=(1, 1, 1), padding=(1, 1, 1), bias=False)
        (norm): InstanceNorm3d(32, eps=1e-05, momentum=0.1, affine=True, track_running_stats=False)
        (activation): LeakyReLU(negative_slope=0.01, inplace=True)
      )
      (conv2): CNA3d(
        (conv): Conv3d(32, 32, kernel_size=(3, 3, 3), stride=(1, 1, 1), padding=(1, 1, 1), bias=False)
        (norm): InstanceNorm3d(32, eps=1e-05, momentum=0.1, affine=True, track_running_stats=False)
        (activation): LeakyReLU(negative_slope=0.01, inplace=True)
      )
    )
  )
  (down12): Down(
    (CB2d): CB3d(
      (conv1): CNA3d(
        (conv): Conv3d(32, 48, kernel_size=(1, 3, 3), stride=(1, 1, 1), padding=(0, 1, 1), bias=False)
        (norm): InstanceNorm3d(48, eps=1e-05, momentum=0.1, affine=True, track_running_stats=False)
        (activation): LeakyReLU(negative_slope=0.01, inplace=True)
      )
      (conv2): CNA3d(
        (conv): Conv3d(48, 48, kernel_size=(1, 3, 3), stride=(1, 1, 1), padding=(0, 1, 1), bias=False)
        (norm): InstanceNorm3d(48, eps=1e-05, momentum=0.1, affine=True, track_running_stats=False)
        (activation): LeakyReLU(negative_slope=0.01, inplace=True)
      )
    )
    (CB3d): CB3d(
      (conv1): CNA3d(
        (conv): Conv3d(32, 48, kernel_size=(3, 3, 3), stride=(1, 1, 1), padding=(1, 1, 1), bias=False)
        (norm): InstanceNorm3d(48, eps=1e-05, momentum=0.1, affine=True, track_running_stats=False)
        (activation): LeakyReLU(negative_slope=0.01, inplace=True)
      )
      (conv2): CNA3d(
        (conv): Conv3d(48, 48, kernel_size=(3, 3, 3), stride=(1, 1, 1), padding=(1, 1, 1), bias=False)
        (norm): InstanceNorm3d(48, eps=1e-05, momentum=0.1, affine=True, track_running_stats=False)
        (activation): LeakyReLU(negative_slope=0.01, inplace=True)
      )
    )
  )
  (down13): Down(
    (CB2d): CB3d(
      (conv1): CNA3d(
        (conv): Conv3d(48, 64, kernel_size=(1, 3, 3), stride=(1, 1, 1), padding=(0, 1, 1), bias=False)
        (norm): InstanceNorm3d(64, eps=1e-05, momentum=0.1, affine=True, track_running_stats=False)
        (activation): LeakyReLU(negative_slope=0.01, inplace=True)
      )
      (conv2): CNA3d(
        (conv): Conv3d(64, 64, kernel_size=(1, 3, 3), stride=(1, 1, 1), padding=(0, 1, 1), bias=False)
        (norm): InstanceNorm3d(64, eps=1e-05, momentum=0.1, affine=True, track_running_stats=False)
        (activation): LeakyReLU(negative_slope=0.01, inplace=True)
      )
    )
    (CB3d): CB3d(
      (conv1): CNA3d(
        (conv): Conv3d(48, 64, kernel_size=(3, 3, 3), stride=(1, 1, 1), padding=(1, 1, 1), bias=False)
        (norm): InstanceNorm3d(64, eps=1e-05, momentum=0.1, affine=True, track_running_stats=False)
        (activation): LeakyReLU(negative_slope=0.01, inplace=True)
      )
      (conv2): CNA3d(
        (conv): Conv3d(64, 64, kernel_size=(3, 3, 3), stride=(1, 1, 1), padding=(1, 1, 1), bias=False)
        (norm): InstanceNorm3d(64, eps=1e-05, momentum=0.1, affine=True, track_running_stats=False)
        (activation): LeakyReLU(negative_slope=0.01, inplace=True)
      )
    )
  )
  (down14): Down(
    (CB2d): CB3d(
      (conv1): CNA3d(
        (conv): Conv3d(64, 80, kernel_size=(1, 3, 3), stride=(1, 1, 1), padding=(0, 1, 1), bias=False)
        (norm): InstanceNorm3d(80, eps=1e-05, momentum=0.1, affine=True, track_running_stats=False)
        (activation): LeakyReLU(negative_slope=0.01, inplace=True)
      )
      (conv2): CNA3d(
        (conv): Conv3d(80, 80, kernel_size=(1, 3, 3), stride=(1, 1, 1), padding=(0, 1, 1), bias=False)
        (norm): InstanceNorm3d(80, eps=1e-05, momentum=0.1, affine=True, track_running_stats=False)
        (activation): LeakyReLU(negative_slope=0.01, inplace=True)
      )
    )
    (CB3d): CB3d(
      (conv1): CNA3d(
        (conv): Conv3d(64, 80, kernel_size=(3, 3, 3), stride=(1, 1, 1), padding=(1, 1, 1), bias=False)
        (norm): InstanceNorm3d(80, eps=1e-05, momentum=0.1, affine=True, track_running_stats=False)
        (activation): LeakyReLU(negative_slope=0.01, inplace=True)
      )
      (conv2): CNA3d(
        (conv): Conv3d(80, 80, kernel_size=(3, 3, 3), stride=(1, 1, 1), padding=(1, 1, 1), bias=False)
        (norm): InstanceNorm3d(80, eps=1e-05, momentum=0.1, affine=True, track_running_stats=False)
        (activation): LeakyReLU(negative_slope=0.01, inplace=True)
      )
    )
  )
  (bottleneck1): Down(
    (CB2d): CB3d(
      (conv1): CNA3d(
        (conv): Conv3d(80, 96, kernel_size=(1, 3, 3), stride=(1, 1, 1), padding=(0, 1, 1), bias=False)
        (norm): InstanceNorm3d(96, eps=1e-05, momentum=0.1, affine=True, track_running_stats=False)
        (activation): LeakyReLU(negative_slope=0.01, inplace=True)
      )
      (conv2): CNA3d(
        (conv): Conv3d(96, 96, kernel_size=(1, 3, 3), stride=(1, 1, 1), padding=(0, 1, 1), bias=False)
        (norm): InstanceNorm3d(96, eps=1e-05, momentum=0.1, affine=True, track_running_stats=False)
        (activation): LeakyReLU(negative_slope=0.01, inplace=True)
      )
    )
  )
  (up11): Up(
    (CB2d): CB3d(
      (conv1): CNA3d(
        (conv): Conv3d(176, 80, kernel_size=(1, 3, 3), stride=(1, 1, 1), padding=(0, 1, 1), bias=False)
        (norm): InstanceNorm3d(80, eps=1e-05, momentum=0.1, affine=True, track_running_stats=False)
        (activation): LeakyReLU(negative_slope=0.01, inplace=True)
      )
      (conv2): CNA3d(
        (conv): Conv3d(80, 80, kernel_size=(1, 3, 3), stride=(1, 1, 1), padding=(0, 1, 1), bias=False)
        (norm): InstanceNorm3d(80, eps=1e-05, momentum=0.1, affine=True, track_running_stats=False)
        (activation): LeakyReLU(negative_slope=0.01, inplace=True)
      )
    )
  )
  (up12): Up(
    (CB2d): CB3d(
      (conv1): CNA3d(
        (conv): Conv3d(144, 64, kernel_size=(1, 3, 3), stride=(1, 1, 1), padding=(0, 1, 1), bias=False)
        (norm): InstanceNorm3d(64, eps=1e-05, momentum=0.1, affine=True, track_running_stats=False)
        (activation): LeakyReLU(negative_slope=0.01, inplace=True)
      )
      (conv2): CNA3d(
        (conv): Conv3d(64, 64, kernel_size=(1, 3, 3), stride=(1, 1, 1), padding=(0, 1, 1), bias=False)
        (norm): InstanceNorm3d(64, eps=1e-05, momentum=0.1, affine=True, track_running_stats=False)
        (activation): LeakyReLU(negative_slope=0.01, inplace=True)
      )
    )
  )
  (up13): Up(
    (CB2d): CB3d(
      (conv1): CNA3d(
        (conv): Conv3d(112, 48, kernel_size=(1, 3, 3), stride=(1, 1, 1), padding=(0, 1, 1), bias=False)
        (norm): InstanceNorm3d(48, eps=1e-05, momentum=0.1, affine=True, track_running_stats=False)
        (activation): LeakyReLU(negative_slope=0.01, inplace=True)
      )
      (conv2): CNA3d(
        (conv): Conv3d(48, 48, kernel_size=(1, 3, 3), stride=(1, 1, 1), padding=(0, 1, 1), bias=False)
        (norm): InstanceNorm3d(48, eps=1e-05, momentum=0.1, affine=True, track_running_stats=False)
        (activation): LeakyReLU(negative_slope=0.01, inplace=True)
      )
    )
  )
  (up14): Up(
    (CB2d): CB3d(
      (conv1): CNA3d(
        (conv): Conv3d(80, 32, kernel_size=(1, 3, 3), stride=(1, 1, 1), padding=(0, 1, 1), bias=False)
        (norm): InstanceNorm3d(32, eps=1e-05, momentum=0.1, affine=True, track_running_stats=False)
        (activation): LeakyReLU(negative_slope=0.01, inplace=True)
      )
      (conv2): CNA3d(
        (conv): Conv3d(32, 32, kernel_size=(1, 3, 3), stride=(1, 1, 1), padding=(0, 1, 1), bias=False)
        (norm): InstanceNorm3d(32, eps=1e-05, momentum=0.1, affine=True, track_running_stats=False)
        (activation): LeakyReLU(negative_slope=0.01, inplace=True)
      )
    )
    (CB3d): CB3d(
      (conv1): CNA3d(
        (conv): Conv3d(80, 32, kernel_size=(3, 3, 3), stride=(1, 1, 1), padding=(1, 1, 1), bias=False)
        (norm): InstanceNorm3d(32, eps=1e-05, momentum=0.1, affine=True, track_running_stats=False)
        (activation): LeakyReLU(negative_slope=0.01, inplace=True)
      )
      (conv2): CNA3d(
        (conv): Conv3d(32, 32, kernel_size=(3, 3, 3), stride=(1, 1, 1), padding=(1, 1, 1), bias=False)
        (norm): InstanceNorm3d(32, eps=1e-05, momentum=0.1, affine=True, track_running_stats=False)
        (activation): LeakyReLU(negative_slope=0.01, inplace=True)
      )
    )
  )
  (down21): Down(
    (CB2d): CB3d(
      (conv1): CNA3d(
        (conv): Conv3d(32, 48, kernel_size=(1, 3, 3), stride=(1, 1, 1), padding=(0, 1, 1), bias=False)
        (norm): InstanceNorm3d(48, eps=1e-05, momentum=0.1, affine=True, track_running_stats=False)
        (activation): LeakyReLU(negative_slope=0.01, inplace=True)
      )
      (conv2): CNA3d(
        (conv): Conv3d(48, 48, kernel_size=(1, 3, 3), stride=(1, 1, 1), padding=(0, 1, 1), bias=False)
        (norm): InstanceNorm3d(48, eps=1e-05, momentum=0.1, affine=True, track_running_stats=False)
        (activation): LeakyReLU(negative_slope=0.01, inplace=True)
      )
    )
    (CB3d): CB3d(
      (conv1): CNA3d(
        (conv): Conv3d(32, 48, kernel_size=(3, 3, 3), stride=(1, 1, 1), padding=(1, 1, 1), bias=False)
        (norm): InstanceNorm3d(48, eps=1e-05, momentum=0.1, affine=True, track_running_stats=False)
        (activation): LeakyReLU(negative_slope=0.01, inplace=True)
      )
      (conv2): CNA3d(
        (conv): Conv3d(48, 48, kernel_size=(3, 3, 3), stride=(1, 1, 1), padding=(1, 1, 1), bias=False)
        (norm): InstanceNorm3d(48, eps=1e-05, momentum=0.1, affine=True, track_running_stats=False)
        (activation): LeakyReLU(negative_slope=0.01, inplace=True)
      )
    )
  )
  (down22): Down(
    (CB2d): CB3d(
      (conv1): CNA3d(
        (conv): Conv3d(48, 64, kernel_size=(1, 3, 3), stride=(1, 1, 1), padding=(0, 1, 1), bias=False)
        (norm): InstanceNorm3d(64, eps=1e-05, momentum=0.1, affine=True, track_running_stats=False)
        (activation): LeakyReLU(negative_slope=0.01, inplace=True)
      )
      (conv2): CNA3d(
        (conv): Conv3d(64, 64, kernel_size=(1, 3, 3), stride=(1, 1, 1), padding=(0, 1, 1), bias=False)
        (norm): InstanceNorm3d(64, eps=1e-05, momentum=0.1, affine=True, track_running_stats=False)
        (activation): LeakyReLU(negative_slope=0.01, inplace=True)
      )
    )
    (CB3d): CB3d(
      (conv1): CNA3d(
        (conv): Conv3d(48, 64, kernel_size=(3, 3, 3), stride=(1, 1, 1), padding=(1, 1, 1), bias=False)
        (norm): InstanceNorm3d(64, eps=1e-05, momentum=0.1, affine=True, track_running_stats=False)
        (activation): LeakyReLU(negative_slope=0.01, inplace=True)
      )
      (conv2): CNA3d(
        (conv): Conv3d(64, 64, kernel_size=(3, 3, 3), stride=(1, 1, 1), padding=(1, 1, 1), bias=False)
        (norm): InstanceNorm3d(64, eps=1e-05, momentum=0.1, affine=True, track_running_stats=False)
        (activation): LeakyReLU(negative_slope=0.01, inplace=True)
      )
    )
  )
  (down23): Down(
    (CB2d): CB3d(
      (conv1): CNA3d(
        (conv): Conv3d(64, 80, kernel_size=(1, 3, 3), stride=(1, 1, 1), padding=(0, 1, 1), bias=False)
        (norm): InstanceNorm3d(80, eps=1e-05, momentum=0.1, affine=True, track_running_stats=False)
        (activation): LeakyReLU(negative_slope=0.01, inplace=True)
      )
      (conv2): CNA3d(
        (conv): Conv3d(80, 80, kernel_size=(1, 3, 3), stride=(1, 1, 1), padding=(0, 1, 1), bias=False)
        (norm): InstanceNorm3d(80, eps=1e-05, momentum=0.1, affine=True, track_running_stats=False)
        (activation): LeakyReLU(negative_slope=0.01, inplace=True)
      )
    )
    (CB3d): CB3d(
      (conv1): CNA3d(
        (conv): Conv3d(64, 80, kernel_size=(3, 3, 3), stride=(1, 1, 1), padding=(1, 1, 1), bias=False)
        (norm): InstanceNorm3d(80, eps=1e-05, momentum=0.1, affine=True, track_running_stats=False)
        (activation): LeakyReLU(negative_slope=0.01, inplace=True)
      )
      (conv2): CNA3d(
        (conv): Conv3d(80, 80, kernel_size=(3, 3, 3), stride=(1, 1, 1), padding=(1, 1, 1), bias=False)
        (norm): InstanceNorm3d(80, eps=1e-05, momentum=0.1, affine=True, track_running_stats=False)
        (activation): LeakyReLU(negative_slope=0.01, inplace=True)
      )
    )
  )
  (bottleneck2): Down(
    (CB2d): CB3d(
      (conv1): CNA3d(
        (conv): Conv3d(80, 96, kernel_size=(1, 3, 3), stride=(1, 1, 1), padding=(0, 1, 1), bias=False)
        (norm): InstanceNorm3d(96, eps=1e-05, momentum=0.1, affine=True, track_running_stats=False)
        (activation): LeakyReLU(negative_slope=0.01, inplace=True)
      )
      (conv2): CNA3d(
        (conv): Conv3d(96, 96, kernel_size=(1, 3, 3), stride=(1, 1, 1), padding=(0, 1, 1), bias=False)
        (norm): InstanceNorm3d(96, eps=1e-05, momentum=0.1, affine=True, track_running_stats=False)
        (activation): LeakyReLU(negative_slope=0.01, inplace=True)
      )
    )
    (CB3d): CB3d(
      (conv1): CNA3d(
        (conv): Conv3d(80, 96, kernel_size=(3, 3, 3), stride=(1, 1, 1), padding=(1, 1, 1), bias=False)
        (norm): InstanceNorm3d(96, eps=1e-05, momentum=0.1, affine=True, track_running_stats=False)
        (activation): LeakyReLU(negative_slope=0.01, inplace=True)
      )
      (conv2): CNA3d(
        (conv): Conv3d(96, 96, kernel_size=(3, 3, 3), stride=(1, 1, 1), padding=(1, 1, 1), bias=False)
        (norm): InstanceNorm3d(96, eps=1e-05, momentum=0.1, affine=True, track_running_stats=False)
        (activation): LeakyReLU(negative_slope=0.01, inplace=True)
      )
    )
  )
  (up21): Up(
    (CB2d): CB3d(
      (conv1): CNA3d(
        (conv): Conv3d(176, 80, kernel_size=(1, 3, 3), stride=(1, 1, 1), padding=(0, 1, 1), bias=False)
        (norm): InstanceNorm3d(80, eps=1e-05, momentum=0.1, affine=True, track_running_stats=False)
        (activation): LeakyReLU(negative_slope=0.01, inplace=True)
      )
      (conv2): CNA3d(
        (conv): Conv3d(80, 80, kernel_size=(1, 3, 3), stride=(1, 1, 1), padding=(0, 1, 1), bias=False)
        (norm): InstanceNorm3d(80, eps=1e-05, momentum=0.1, affine=True, track_running_stats=False)
        (activation): LeakyReLU(negative_slope=0.01, inplace=True)
      )
    )
    (CB3d): CB3d(
      (conv1): CNA3d(
        (conv): Conv3d(176, 80, kernel_size=(3, 3, 3), stride=(1, 1, 1), padding=(1, 1, 1), bias=False)
        (norm): InstanceNorm3d(80, eps=1e-05, momentum=0.1, affine=True, track_running_stats=False)
        (activation): LeakyReLU(negative_slope=0.01, inplace=True)
      )
      (conv2): CNA3d(
        (conv): Conv3d(80, 80, kernel_size=(3, 3, 3), stride=(1, 1, 1), padding=(1, 1, 1), bias=False)
        (norm): InstanceNorm3d(80, eps=1e-05, momentum=0.1, affine=True, track_running_stats=False)
        (activation): LeakyReLU(negative_slope=0.01, inplace=True)
      )
    )
  )
  (up22): Up(
    (CB2d): CB3d(
      (conv1): CNA3d(
        (conv): Conv3d(144, 64, kernel_size=(1, 3, 3), stride=(1, 1, 1), padding=(0, 1, 1), bias=False)
        (norm): InstanceNorm3d(64, eps=1e-05, momentum=0.1, affine=True, track_running_stats=False)
        (activation): LeakyReLU(negative_slope=0.01, inplace=True)
      )
      (conv2): CNA3d(
        (conv): Conv3d(64, 64, kernel_size=(1, 3, 3), stride=(1, 1, 1), padding=(0, 1, 1), bias=False)
        (norm): InstanceNorm3d(64, eps=1e-05, momentum=0.1, affine=True, track_running_stats=False)
        (activation): LeakyReLU(negative_slope=0.01, inplace=True)
      )
    )
    (CB3d): CB3d(
      (conv1): CNA3d(
        (conv): Conv3d(144, 64, kernel_size=(3, 3, 3), stride=(1, 1, 1), padding=(1, 1, 1), bias=False)
        (norm): InstanceNorm3d(64, eps=1e-05, momentum=0.1, affine=True, track_running_stats=False)
        (activation): LeakyReLU(negative_slope=0.01, inplace=True)
      )
      (conv2): CNA3d(
        (conv): Conv3d(64, 64, kernel_size=(3, 3, 3), stride=(1, 1, 1), padding=(1, 1, 1), bias=False)
        (norm): InstanceNorm3d(64, eps=1e-05, momentum=0.1, affine=True, track_running_stats=False)
        (activation): LeakyReLU(negative_slope=0.01, inplace=True)
      )
    )
  )
  (up23): Up(
    (CB3d): CB3d(
      (conv1): CNA3d(
        (conv): Conv3d(112, 48, kernel_size=(3, 3, 3), stride=(1, 1, 1), padding=(1, 1, 1), bias=False)
        (norm): InstanceNorm3d(48, eps=1e-05, momentum=0.1, affine=True, track_running_stats=False)
        (activation): LeakyReLU(negative_slope=0.01, inplace=True)
      )
      (conv2): CNA3d(
        (conv): Conv3d(48, 48, kernel_size=(3, 3, 3), stride=(1, 1, 1), padding=(1, 1, 1), bias=False)
        (norm): InstanceNorm3d(48, eps=1e-05, momentum=0.1, affine=True, track_running_stats=False)
        (activation): LeakyReLU(negative_slope=0.01, inplace=True)
      )
    )
  )
  (down31): Down(
    (CB2d): CB3d(
      (conv1): CNA3d(
        (conv): Conv3d(48, 64, kernel_size=(1, 3, 3), stride=(1, 1, 1), padding=(0, 1, 1), bias=False)
        (norm): InstanceNorm3d(64, eps=1e-05, momentum=0.1, affine=True, track_running_stats=False)
        (activation): LeakyReLU(negative_slope=0.01, inplace=True)
      )
      (conv2): CNA3d(
        (conv): Conv3d(64, 64, kernel_size=(1, 3, 3), stride=(1, 1, 1), padding=(0, 1, 1), bias=False)
        (norm): InstanceNorm3d(64, eps=1e-05, momentum=0.1, affine=True, track_running_stats=False)
        (activation): LeakyReLU(negative_slope=0.01, inplace=True)
      )
    )
    (CB3d): CB3d(
      (conv1): CNA3d(
        (conv): Conv3d(48, 64, kernel_size=(3, 3, 3), stride=(1, 1, 1), padding=(1, 1, 1), bias=False)
        (norm): InstanceNorm3d(64, eps=1e-05, momentum=0.1, affine=True, track_running_stats=False)
        (activation): LeakyReLU(negative_slope=0.01, inplace=True)
      )
      (conv2): CNA3d(
        (conv): Conv3d(64, 64, kernel_size=(3, 3, 3), stride=(1, 1, 1), padding=(1, 1, 1), bias=False)
        (norm): InstanceNorm3d(64, eps=1e-05, momentum=0.1, affine=True, track_running_stats=False)
        (activation): LeakyReLU(negative_slope=0.01, inplace=True)
      )
    )
  )
  (down32): Down(
    (CB2d): CB3d(
      (conv1): CNA3d(
        (conv): Conv3d(64, 80, kernel_size=(1, 3, 3), stride=(1, 1, 1), padding=(0, 1, 1), bias=False)
        (norm): InstanceNorm3d(80, eps=1e-05, momentum=0.1, affine=True, track_running_stats=False)
        (activation): LeakyReLU(negative_slope=0.01, inplace=True)
      )
      (conv2): CNA3d(
        (conv): Conv3d(80, 80, kernel_size=(1, 3, 3), stride=(1, 1, 1), padding=(0, 1, 1), bias=False)
        (norm): InstanceNorm3d(80, eps=1e-05, momentum=0.1, affine=True, track_running_stats=False)
        (activation): LeakyReLU(negative_slope=0.01, inplace=True)
      )
    )
    (CB3d): CB3d(
      (conv1): CNA3d(
        (conv): Conv3d(64, 80, kernel_size=(3, 3, 3), stride=(1, 1, 1), padding=(1, 1, 1), bias=False)
        (norm): InstanceNorm3d(80, eps=1e-05, momentum=0.1, affine=True, track_running_stats=False)
        (activation): LeakyReLU(negative_slope=0.01, inplace=True)
      )
      (conv2): CNA3d(
        (conv): Conv3d(80, 80, kernel_size=(3, 3, 3), stride=(1, 1, 1), padding=(1, 1, 1), bias=False)
        (norm): InstanceNorm3d(80, eps=1e-05, momentum=0.1, affine=True, track_running_stats=False)
        (activation): LeakyReLU(negative_slope=0.01, inplace=True)
      )
    )
  )
  (bottleneck3): Down(
    (CB2d): CB3d(
      (conv1): CNA3d(
        (conv): Conv3d(80, 96, kernel_size=(1, 3, 3), stride=(1, 1, 1), padding=(0, 1, 1), bias=False)
        (norm): InstanceNorm3d(96, eps=1e-05, momentum=0.1, affine=True, track_running_stats=False)
        (activation): LeakyReLU(negative_slope=0.01, inplace=True)
      )
      (conv2): CNA3d(
        (conv): Conv3d(96, 96, kernel_size=(1, 3, 3), stride=(1, 1, 1), padding=(0, 1, 1), bias=False)
        (norm): InstanceNorm3d(96, eps=1e-05, momentum=0.1, affine=True, track_running_stats=False)
        (activation): LeakyReLU(negative_slope=0.01, inplace=True)
      )
    )
    (CB3d): CBzMamba(
      (pre): Conv3d(80, 40, kernel_size=(1, 1, 1), stride=(1, 1, 1), bias=False)
      (n1): InstanceNorm3d(40, eps=1e-05, momentum=0.1, affine=True, track_running_stats=False)
      (a1): LeakyReLU(negative_slope=0.01, inplace=True)
      (zssm): ZScanBidirectional(
        (shared_block): Mamba(
          (in_proj): Linear(in_features=40, out_features=160, bias=False)
          (conv1d): Conv1d(80, 80, kernel_size=(4,), stride=(1,), padding=(3,), groups=80)
          (act): SiLU()
          (x_proj): Linear(in_features=80, out_features=35, bias=False)
          (dt_proj): Linear(in_features=3, out_features=80, bias=True)
          (out_proj): Linear(in_features=80, out_features=40, bias=False)
        )
        (channel_gate): BidirectionalChannelGate(
          (fc1): Conv3d(80, 10, kernel_size=(1, 1, 1), stride=(1, 1, 1))
          (act): ReLU(inplace=True)
          (fc2): Conv3d(10, 40, kernel_size=(1, 1, 1), stride=(1, 1, 1))
        )
        (spatial_gate): BidirectionalSpatialGate(
          (conv): Conv3d(2, 1, kernel_size=(1, 1, 1), stride=(1, 1, 1))
        )
      )
      (post): Conv3d(40, 96, kernel_size=(1, 1, 1), stride=(1, 1, 1), bias=False)
      (n2): InstanceNorm3d(96, eps=1e-05, momentum=0.1, affine=True, track_running_stats=False)
      (a2): LeakyReLU(negative_slope=0.01, inplace=True)
    )
  )
  (up31): Up(
    (CB2d): CB3d(
      (conv1): CNA3d(
        (conv): Conv3d(176, 80, kernel_size=(1, 3, 3), stride=(1, 1, 1), padding=(0, 1, 1), bias=False)
        (norm): InstanceNorm3d(80, eps=1e-05, momentum=0.1, affine=True, track_running_stats=False)
        (activation): LeakyReLU(negative_slope=0.01, inplace=True)
      )
      (conv2): CNA3d(
        (conv): Conv3d(80, 80, kernel_size=(1, 3, 3), stride=(1, 1, 1), padding=(0, 1, 1), bias=False)
        (norm): InstanceNorm3d(80, eps=1e-05, momentum=0.1, affine=True, track_running_stats=False)
        (activation): LeakyReLU(negative_slope=0.01, inplace=True)
      )
    )
    (CB3d): CB3d(
      (conv1): CNA3d(
        (conv): Conv3d(176, 80, kernel_size=(3, 3, 3), stride=(1, 1, 1), padding=(1, 1, 1), bias=False)
        (norm): InstanceNorm3d(80, eps=1e-05, momentum=0.1, affine=True, track_running_stats=False)
        (activation): LeakyReLU(negative_slope=0.01, inplace=True)
      )
      (conv2): CNA3d(
        (conv): Conv3d(80, 80, kernel_size=(3, 3, 3), stride=(1, 1, 1), padding=(1, 1, 1), bias=False)
        (norm): InstanceNorm3d(80, eps=1e-05, momentum=0.1, affine=True, track_running_stats=False)
        (activation): LeakyReLU(negative_slope=0.01, inplace=True)
      )
    )
  )
  (up32): Up(
    (CB3d): CB3d(
      (conv1): CNA3d(
        (conv): Conv3d(144, 64, kernel_size=(3, 3, 3), stride=(1, 1, 1), padding=(1, 1, 1), bias=False)
        (norm): InstanceNorm3d(64, eps=1e-05, momentum=0.1, affine=True, track_running_stats=False)
        (activation): LeakyReLU(negative_slope=0.01, inplace=True)
      )
      (conv2): CNA3d(
        (conv): Conv3d(64, 64, kernel_size=(3, 3, 3), stride=(1, 1, 1), padding=(1, 1, 1), bias=False)
        (norm): InstanceNorm3d(64, eps=1e-05, momentum=0.1, affine=True, track_running_stats=False)
        (activation): LeakyReLU(negative_slope=0.01, inplace=True)
      )
    )
  )
  (down41): Down(
    (CB2d): CB3d(
      (conv1): CNA3d(
        (conv): Conv3d(64, 80, kernel_size=(1, 3, 3), stride=(1, 1, 1), padding=(0, 1, 1), bias=False)
        (norm): InstanceNorm3d(80, eps=1e-05, momentum=0.1, affine=True, track_running_stats=False)
        (activation): LeakyReLU(negative_slope=0.01, inplace=True)
      )
      (conv2): CNA3d(
        (conv): Conv3d(80, 80, kernel_size=(1, 3, 3), stride=(1, 1, 1), padding=(0, 1, 1), bias=False)
        (norm): InstanceNorm3d(80, eps=1e-05, momentum=0.1, affine=True, track_running_stats=False)
        (activation): LeakyReLU(negative_slope=0.01, inplace=True)
      )
    )
    (CB3d): CB3d(
      (conv1): CNA3d(
        (conv): Conv3d(64, 80, kernel_size=(3, 3, 3), stride=(1, 1, 1), padding=(1, 1, 1), bias=False)
        (norm): InstanceNorm3d(80, eps=1e-05, momentum=0.1, affine=True, track_running_stats=False)
        (activation): LeakyReLU(negative_slope=0.01, inplace=True)
      )
      (conv2): CNA3d(
        (conv): Conv3d(80, 80, kernel_size=(3, 3, 3), stride=(1, 1, 1), padding=(1, 1, 1), bias=False)
        (norm): InstanceNorm3d(80, eps=1e-05, momentum=0.1, affine=True, track_running_stats=False)
        (activation): LeakyReLU(negative_slope=0.01, inplace=True)
      )
    )
  )
  (bottleneck4): Down(
    (CB2d): CB3d(
      (conv1): CNA3d(
        (conv): Conv3d(80, 96, kernel_size=(1, 3, 3), stride=(1, 1, 1), padding=(0, 1, 1), bias=False)
        (norm): InstanceNorm3d(96, eps=1e-05, momentum=0.1, affine=True, track_running_stats=False)
        (activation): LeakyReLU(negative_slope=0.01, inplace=True)
      )
      (conv2): CNA3d(
        (conv): Conv3d(96, 96, kernel_size=(1, 3, 3), stride=(1, 1, 1), padding=(0, 1, 1), bias=False)
        (norm): InstanceNorm3d(96, eps=1e-05, momentum=0.1, affine=True, track_running_stats=False)
        (activation): LeakyReLU(negative_slope=0.01, inplace=True)
      )
    )
    (CB3d): CBzMamba(
      (pre): Conv3d(80, 40, kernel_size=(1, 1, 1), stride=(1, 1, 1), bias=False)
      (n1): InstanceNorm3d(40, eps=1e-05, momentum=0.1, affine=True, track_running_stats=False)
      (a1): LeakyReLU(negative_slope=0.01, inplace=True)
      (zssm): ZScanBidirectional(
        (shared_block): Mamba(
          (in_proj): Linear(in_features=40, out_features=160, bias=False)
          (conv1d): Conv1d(80, 80, kernel_size=(4,), stride=(1,), padding=(3,), groups=80)
          (act): SiLU()
          (x_proj): Linear(in_features=80, out_features=35, bias=False)
          (dt_proj): Linear(in_features=3, out_features=80, bias=True)
          (out_proj): Linear(in_features=80, out_features=40, bias=False)
        )
        (channel_gate): BidirectionalChannelGate(
          (fc1): Conv3d(80, 10, kernel_size=(1, 1, 1), stride=(1, 1, 1))
          (act): ReLU(inplace=True)
          (fc2): Conv3d(10, 40, kernel_size=(1, 1, 1), stride=(1, 1, 1))
        )
        (spatial_gate): BidirectionalSpatialGate(
          (conv): Conv3d(2, 1, kernel_size=(1, 1, 1), stride=(1, 1, 1))
        )
      )
      (post): Conv3d(40, 96, kernel_size=(1, 1, 1), stride=(1, 1, 1), bias=False)
      (n2): InstanceNorm3d(96, eps=1e-05, momentum=0.1, affine=True, track_running_stats=False)
      (a2): LeakyReLU(negative_slope=0.01, inplace=True)
    )
  )
  (up41): Up(
    (CB3d): CB3d(
      (conv1): CNA3d(
        (conv): Conv3d(176, 80, kernel_size=(3, 3, 3), stride=(1, 1, 1), padding=(1, 1, 1), bias=False)
        (norm): InstanceNorm3d(80, eps=1e-05, momentum=0.1, affine=True, track_running_stats=False)
        (activation): LeakyReLU(negative_slope=0.01, inplace=True)
      )
      (conv2): CNA3d(
        (conv): Conv3d(80, 80, kernel_size=(3, 3, 3), stride=(1, 1, 1), padding=(1, 1, 1), bias=False)
        (norm): InstanceNorm3d(80, eps=1e-05, momentum=0.1, affine=True, track_running_stats=False)
        (activation): LeakyReLU(negative_slope=0.01, inplace=True)
      )
    )
  )
  (bottleneck5): Down(
    (CB3d): CBzMamba(
      (pre): Conv3d(80, 40, kernel_size=(1, 1, 1), stride=(1, 1, 1), bias=False)
      (n1): InstanceNorm3d(40, eps=1e-05, momentum=0.1, affine=True, track_running_stats=False)
      (a1): LeakyReLU(negative_slope=0.01, inplace=True)
      (zssm): ZScanBidirectional(
        (shared_block): Mamba(
          (in_proj): Linear(in_features=40, out_features=160, bias=False)
          (conv1d): Conv1d(80, 80, kernel_size=(4,), stride=(1,), padding=(3,), groups=80)
          (act): SiLU()
          (x_proj): Linear(in_features=80, out_features=35, bias=False)
          (dt_proj): Linear(in_features=3, out_features=80, bias=True)
          (out_proj): Linear(in_features=80, out_features=40, bias=False)
        )
        (channel_gate): BidirectionalChannelGate(
          (fc1): Conv3d(80, 10, kernel_size=(1, 1, 1), stride=(1, 1, 1))
          (act): ReLU(inplace=True)
          (fc2): Conv3d(10, 40, kernel_size=(1, 1, 1), stride=(1, 1, 1))
        )
        (spatial_gate): BidirectionalSpatialGate(
          (conv): Conv3d(2, 1, kernel_size=(1, 1, 1), stride=(1, 1, 1))
        )
      )
      (post): Conv3d(40, 96, kernel_size=(1, 1, 1), stride=(1, 1, 1), bias=False)
      (n2): InstanceNorm3d(96, eps=1e-05, momentum=0.1, affine=True, track_running_stats=False)
      (a2): LeakyReLU(negative_slope=0.01, inplace=True)
    )
  )
  (outputs): ModuleList(
    (0): Conv3d(32, 3, kernel_size=(1, 1, 1), stride=(1, 1, 1), bias=False)
    (1-2): 2 x Conv3d(48, 3, kernel_size=(1, 1, 1), stride=(1, 1, 1), bias=False)
    (3-4): 2 x Conv3d(64, 3, kernel_size=(1, 1, 1), stride=(1, 1, 1), bias=False)
    (5-6): 2 x Conv3d(80, 3, kernel_size=(1, 1, 1), stride=(1, 1, 1), bias=False)
  )
) 
2025-11-16 01:26:41.736462: 
 
2025-11-16 01:26:41.757176: 
epoch:  0 
2025-11-16 01:28:50.590628: train loss : 0.0196 
…
